mlruns/461438047419225633/3e96826a6ed4484ab7d4c05efe611676/artifacts/model/data/model.pth (torch, 218548 bytes, 6 tensors)

weight f4 [639, 3, 3, 3]
0.17469107 -0.061798386 0.15563239 0.19232267 0.026545038 0.12978362 0.12636131 -0.12287628
-0.13029446 -0.057603583 -0.042555828 0.18634674 0.011997067 -0.052190274 -0.09760275 0.12928236
-0.102164455 0.11400456 0.007858566 -0.10395273 0.055089157 0.03346198 0.1454441 0.16591659
0.027182592 -0.08281127 0.06580056 -0.0028450862 0.0821734 -0.0646906 0.095825836 0.12510276
-0.047178674 0.07890708 0.04555453 0.14195235 0.12199536 0.014710697 -0.082786724 -0.1450707
0.16659516 0.092574425 0.047153942 -0.10854247 0.14958838 0.16536778 0.009151453 0.15098515
0.07079608 0.09053081 -0.033302993 0.1810626 -0.02583508 -0.045919765 0.15692858 0.12675439
0.10386268 0.069869116 -0.061720338 -0.12508553 0.08937401 -0.02587103 0.038444374 -0.075863495
-0.14298469 -0.15764967 -0.023885826 -0.15845047 0.11554063 0.092222385 -0.02717502 -0.17161581
-0.1569951 -0.19107328 -0.12377569 -0.1327683 0.056063544 -0.14651436 -0.05675765 -0.16594036
0.04169294 0.13463753 0.05200589 -0.13110177 0.14241327 0.052869443 0.06767266 0.026212472
-0.08448045 -0.070799544 0.08634645 0.16108984 -0.008211802 -0.018699892 -0.10212057 0.17435847
-0.17815125 -0.0632771 0.18582137 -0.09936751 0.17270938 0.1780894 -0.091109976 0.15793954
-0.12949899 -0.12156616 0.12876093 -0.087576315 0.1668793 0.016072456 -0.08943002 0.01516175
-0.16132744 0.019660898 0.048831675 -0.19803624 0.053475827 -0.18740286 0.17616954 0.16414686
-0.13141449 0.10824071 0.13830274 -0.20069283 -0.10685594 0.03627289 0.081550576 0.11634744
0.10710614 0.12010551 -0.14387494 0.14077044 -0.14524633 0.04355481 0.027322656 0.08719757
0.17153822 -0.09114928 -0.14288285 -0.0287096 -0.11218816 0.090150714 0.016417868 0.18677866
-0.1178112 -0.071314864 -0.1428102 -0.11593128 0.16426101 0.0030118735 0.053495206 -0.059253678
0.057858698 0.17207567 0.067627676 0.14932129 0.074139625 0.17484462 -0.019553559 -0.16483301
-0.07681921 -0.19112593 -0.10242125 -0.12657616 0.11418543 0.15269172 0.15017483 0.0016484628
0.04669846 0.049290333 0.051727492 -0.039428465 0.16852386 0.116232 0.06483167 0.18538578
-0.08217466 0.043173306 -0.15488957 0.15935704 -0.119454116 -0.16056144 0.17775619 -0.07942593
-0.09735872 -0.12787437 -0.10798347 0.14046863 -0.10559116 -0.10002107 -0.03615455 0.16809767
0.12954651 -0.07290047 -0.14637208 -0.08331951 -0.14119454 0.021080362 -0.11409353 -0.06386859
0.05943838 0.13139594 -0.07110123 -0.18739961 -0.19168897 -0.11765435 -0.15548857 -0.046265222
0.18289532 0.0019760265 -0.1433432 -0.051190812 -0.1314816 -0.19242926 -0.17990234 -0.09653114
0.17711334 0.040832013 -0.12389073 -0.0093831755 -0.10262317 -0.08802105 -0.1488422 0.0095851105
-0.13685459 -0.11141314 0.037457395 0.10781916 0.004672897 -0.14627284 0.13373551 0.034861628
-0.19133437 0.07208439 -0.11834795 0.13163082 -0.045311302 -0.16931129 0.10038133 -0.015311537
-0.1550504 0.14946811 -0.16390187 0.16973431 0.1490393 -0.09978617 0.057920616 0.09665525
-0.09368038 -0.1367507 -0.007612102 -0.00857488 -0.03521352 -0.0072920634 0.18346983 -0.009732823
00000000: 37e2 323e 4e20 7dbd 195e 1f3e 3cf0 443e
00000010: fb74 d93c ffe5 043e dc64 013e 8fa6 fbbd
00000020: e96b 05be bcf1 6bbd 054f 2ebd aed1 3e3e
00000030: 598f 443c 78c5 55bd f3e3 c7bd 9862 043e
00000040: 993b d1bd 397b e93d 37c1 003c 2be5 d4bd
00000050: 2ba5 613d 6e0f 093d 4cef 143e 0ae6 293e
00000060: 07ae de3c f598 a9bd 72c2 863d a074 3abb
00000070: 874a a83d 817c 84bd 5640 c43d f01a 003e
00000080: 6d3e 41bd 099a a13d 6397 3a3d f55b 113e
00000090: b4d8 f93d 2305 713c 168c a9bd 6a8d 14be
000000a0: ec97 2a3e a997 bd3d 7e24 413d 844b debd
000000b0: b22d 193e 2c56 293e faef 153c da9b 1a3e
000000c0: 89fd 903d 3868 b93d b868 08bd 7968 393e
000000d0: 17a4 d3bc 5d16 3cbd e3b1 203e e7cb 013e
000000e0: f5b5 d43d 8a17 8f3d 77ce 7cbd 6c16 00be
000000f0: b909 b73d 7bef d3bc d977 1d3d 525e 9bbd
00000100: 946a 12be ea6e 21be 35ac c3bc d740 22be
00000110: 91a0 ec3d 17df bc3d 269e debc 0ebc 2fbe
00000120: 53c3 20be b7a8 43be 1c7e fdbd 6af4 07be
00000130: e3a2 653d dc07 16be b67a 68bd 45ec 29be
00000140: 37c6 2a3d 6cde 093e 2104 553d 8b3f 06be
00000150: c9d4 113e a18d 583d f797 8a3d 8abb d63c
00000160: 1604 adbd 5aff 90bd 68d6 b03d bcf4 243e
00000170: cb8a 06bc 8430 99bc 9724 d1bd 078b 323e
00000180: 486d 36be 6d97 81bd f547 3e3e 3181 cbbd
00000190: bada 303e 115d 363e de97 babd e7ba 213e
000001a0: 629b 04be aef7 f8bd e8d9 033e 365b b3bd
000001b0: 68e2 2a3e 62aa 833c 1627 b7bd fd68 783c
000001c0: 0533 25be e40f a13c b903 483d 03ca 4abe
000001d0: 7809 5b3d 89e6 3fbe ca65 343e 1d16 283e
000001e0: 8591 06be 4ead dd3d 3c9f 0d3e 6c82 4dbe
000001f0: 49d7 dabd e292 143d fd03 a73d 9147 ee3d
00000200: 775a db3d e1f9 f53d f453 13be 2026 103e
00000210: 74bb 14be 8766 323d c3d3 df3c a494 b23d
00000220: b7a7 2f3e 79ac babd e24f 12be 6530 ebbc
00000230: e8c2 e5bd f0a0 b83d c47e 863c e842 3f3e
00000240: 0047 f1bd 870d 92bd d63c 12be 616d edbd
00000250: 0a34 283e da62 453b ca1d 5b3d fcb3 72bd
00000260: 3efd 6c3d 9b34 303e 6180 8a3d aee7 183e
00000270: 84d6 973d 780a 333e c92e a0bc fcc9 28be
00000280: 6453 9dbd 84b6 43be 3bc2 d1bd 2e9d 01be
00000290: 0dda e93d 385b 1c3e 6ec7 193e 3c11 d83a
000002a0: e246 3f3d a9e4 493d 35e0 533d be7f 21bd
000002b0: 8591 2c3e 0b0b ee3d 77c6 843d c5d5 3d3e
000002c0: 304b a8bd 7ed6 303d 5f9b 1ebe 7e2e 233e
000002d0: 5ca4 f4bd 386a 24be b805 363e 10aa a2bd
000002e0: 0264 c7bd 80f1 02be 7026 ddbd 02d7 0f3e
000002f0: 2e40 d8bd d9d7 ccbd cb16 14bd cc21 2c3e
00000300: d7a7 043e d74c 95bd 90e2 15be 6ba3 aabd
00000310: 4d95 10be b9b0 ac3c dea9 e9bd 89cd 82bd
00000320: a975 733d a88c 063e 869d 91bd afe5 3fbe
00000330: 1d4a 44be c4f4 f0bd 6538 1fbe 9a80 3dbd
00000340: e948 3b3e 3980 013b 8fc8 12be 75ad 51bd
00000350: 1da3 06be 2d0c 45be 5238 38be 1eb2 c5bd
00000360: 335d 353e 783f 273d 6cba fdbd e4bb 19bc
00000370: 192c d2bd 6144 b4bd 176a 18be de0a 1d3c
00000380: 9c23 0cbe 932c e4bd ed6c 193d 4bd0 dc3d
00000390: 1a1f 993b 8cc8 15be f6f1 083e 11cb 0e3d
000003a0: 28ed 43be fba0 933d 6960 f2bd 3bca 063e
000003b0: 5898 39bd f05f 2dbe ba94 cd3d 3edd 7abc
000003c0: 88c5 1ebe 2b0e 193e e4d5 27be d5ce 2d3e
000003d0: c29d 183e b15c ccbd 2b3e 6d3d 30f3 c53d
000003e0: 80db bfbd 6008 0cbe f16e f9bb a77d 0cbc
000003f0: 0d3c 10bd 43f2 eebb 84df 3b3e 6b76 1fbc

bias f4 [639]
0.16359597 -0.09336597 0.18864076 -0.009112063 -0.17068553 -0.08275413 -0.011106076 0.043378703
-0.15792222 0.02540086 0.18275942 0.16094184 0.065733254 -0.0057995166 -0.17163524 -0.08099208
0.06265513 -0.027675398 -0.0034690124 -0.13751055 0.049415115 -0.054107856 0.044906422 -0.059193224
-0.17466931 0.10245802 0.09996935 0.16003887 0.09950107 0.09466823 -0.14535597 -0.17173414
-0.11916145 0.12067127 -0.07203817 0.112428755 -0.049249038 0.13653126 0.01241142 -0.14028186
0.16471155 0.1880533 -0.102665 -0.11533191 -0.14279501 0.08764156 0.0646821 0.16011566
-0.0083131585 0.12695824 -0.008511973 -0.003407276 0.16903271 0.169755 0.16863355 0.06130064
0.17441064 0.07575813 -0.17887977 -0.18031558 0.034799717 0.053312384 -0.14065704 0.16907252
-0.07243791 0.15498699 -0.06037234 -0.09624808 -0.09022234 0.16281071 0.056812435 -0.14106388
0.083118536 -0.15568149 0.15335675 -0.16421372 0.11549922 -0.17326576 0.027762363 0.0778791
0.1427747 -0.06282845 0.1597601 0.055436406 0.18168418 0.08647745 -0.15750805 -0.15460265
-0.032808483 -0.18934657 -0.17696723 0.13590886 -0.07351542 -0.01810726 -0.19194224 0.065897726
-0.004626084 -0.17750251 0.008704064 0.078272864 0.052778203 -0.019565672 -0.16492376 -0.042567547
0.00033774285 0.16679701 0.16832428 -0.03225776 0.13091306 0.18510595 -0.029545028 -0.09235799
0.092653 0.06470305 0.010241581 0.041443743 0.0006558613 0.06302291 -0.017064095 0.072909325
0.013844023 0.06226375 0.05748704 -0.12201821 -0.009491772 -0.17616527 -0.1696392 0.1392111
0.0456878 -0.00878459 0.044927467 -0.08124006 -0.18561228 -0.17506611 -0.021150324 -0.1719709
0.006250779 -0.17392382 -0.11922614 0.025088428 0.10187332 -0.12784961 -0.115682706 -0.089437895
-0.14938436 0.046942305 0.020752568 -0.07867011 0.1365432 -0.050306384 0.14354166 -0.09212417
0.118399255 0.046994247 -0.16078585 0.1172506 -0.055773046 0.1920183 -0.08122262 -0.17671195
0.13867088 0.0052175936 0.18125728 -0.19100638 -0.07671652 -0.14044653 -0.10763813 0.19116193
0.0795325 0.1425723 0.0995158 0.09811109 0.15070471 0.01851053 0.031974614 0.16532628
-0.05392851 -0.029470168 -0.12116098 0.15802969 0.14786024 -0.170142 0.074333236 -0.00434133
0.015630756 0.060672995 0.07470651 -0.008603098 0.1367274 0.1751314 0.057869732 -0.064345546
0.19186115 0.080012485 0.07531739 0.16159143 0.0752758 0.056150585 0.11232799 0.09877046
0.07142602 -0.06896113 -0.14376017 0.17220144 -0.08408396 -0.109871104 -0.055245988 -0.005125941
-0.12153207 0.01570573 -0.059209626 -0.05952728 0.16873305 0.14506407 0.06712922 0.17021355
0.1345849 0.038052928 -0.11468655 -0.09404653 -0.033355437 0.087142594 -0.04879869 0.18901026
-0.092432715 -0.110293575 -0.006874779 -0.16731241 0.13610265 0.030860076 -0.18442926 -0.1366183
0.17966649 0.1747991 0.10216599 -0.03557107 -0.083844 -0.058915123 0.1732282 0.12429474
0.17979911 0.1083839 0.16526899 -0.16012807 -0.10484138 -0.039936785 0.16280465 -0.19580154
-0.1646695 0.15895833 -0.02905701 -0.14305592 -0.08252114 -0.1538605 0.021608895 -0.10791818
00000000: b485 273e a836 bfbd 0b2b 413e c34a 15bc
00000010: 30c8 2ebe ff7a a9bd 42f6 35bc dead 313d
00000020: 5db6 21be 7715 d03c 4925 3b3e f0cd 243e
00000030: 289f 863d df09 bebb 26c1 2fbe 2ddf a5bd
00000040: 5551 803d 84b7 e2bc 5f58 63bb 91cf 0cbe
00000050: 8167 4a3d 33a0 5dbd ccef 373d 9874 72bd
00000060: 83dc 32be 83d5 d13d bbbc cc3d 3be1 233e
00000070: 38c7 cb3d 6be1 c13d 32d8 14be 13db 2fbe
00000080: eb0a f4bd 8022 f73d c088 93bd 0c41 e63d
00000090: 5cb9 49bd dace 0b3e 4559 4b3c 0ca6 0fbe
000000a0: 25aa 283e 0b91 403e 0742 d2bd 2333 ecbd
000000b0: db38 12be 6b7d b33d 0d78 843d 5cf5 233e
000000c0: ea33 08bc 5701 023e cd75 0bbc 9b4c 5fbb
000000d0: e916 2d3e 41d4 2d3e 46ae 2c3e 6116 7b3d
000000e0: b498 323e 1427 9b3d 422c 37be a6a4 38be
000000f0: 268a 0e3d 165e 5a3d 6608 10be 5921 2d3e
00000100: 545a 94bd e9b4 1e3e fd48 77bd b71d c5bd
00000110: 7dc6 b8bd dab7 263e 28b4 683d 0d73 10be
00000120: 0d3a aa3d f86a 1fbe 8d09 1d3e a427 28be
00000130: db8a ec3d 946c 31be e56d e33c 147f 9f3d
00000140: 8833 123e 34ac 80bd 2798 233e 4911 633d
00000150: 6b0b 3a3e 171b b13d ca49 21be 2850 1ebe
00000160: 3062 06bd 11e4 41be e636 35be b12b 0b3e
00000170: 418f 96bd ad55 94bc 828c 44be 63f5 863d
00000180: 6896 97bb 38c3 35be 7e9b 0e3c 864d a03d
00000190: f52d 583d 3048 a0bc c6e1 28be 4f5b 2ebd
000001a0: 1413 b139 d6cc 2a3e 335d 2c3e b720 04bd
000001b0: 130e 063e 6a8c 3d3e 6a08 f2bc 3026 bdbd
000001c0: dbc0 bd3d 0883 843d 4ecc 273c eac0 293d
000001d0: 1bee 2b3a 2812 813d 00ca 8bbc 7c51 953d
000001e0: 0bd2 623c 4608 7f3d 8877 6b3d afe4 f9bd
000001f0: 6183 1bbc ab64 34be e6b5 2dbe 5b8d 0e3e
00000200: 2123 3b3d 3eed 0fbc dd05 383d 3061 a6bd
00000210: 2511 3ebe 8844 33be 7243 adbc 2419 30be
00000220: 56d3 cc3b 1619 32be d62c f4bd 3f86 cd3c
00000230: f6a2 d03d 02eb 02be 0eeb ecbd 372b b7bd
00000240: 37f8 18be 9346 403d 4a01 aa3c cb1d a1bd
00000250: fbd1 0b3e 110e 4ebd 96fc 123e 99ab bcbd
00000260: 4f7b f23d 0a7d 403d 0ca5 24be 1521 f03d
00000270: 4772 64bd 72a0 443e 0c58 a6bd faf3 34be
00000280: bdff 0d3e 59f8 aa3b 829b 393e 2d97 43be
00000290: 8d1d 9dbd 37d1 0fbe 6171 dcbd f4bf 433e
000002a0: efe1 a23d 79fe 113e f1ce cb3d 78ee c83d
000002b0: 5652 1a3e 65a3 973c d0f7 023d 4b4b 293e
000002c0: 24e4 5cbd 6c6b f1bc 3f23 f8bd 89d2 213e
000002d0: ad68 173e b439 2ebe 063c 983d b741 8ebb
000002e0: 120c 803c 3f84 783d baff 983d 02f4 0cbc
000002f0: 4402 0c3e a555 333e d008 6d3d 99c7 83bd
00000300: 4077 443e 96dd a33d 0140 9a3d 3978 253e
00000310: 332a 9a3d 28fe 653d 380c e63d 2b48 ca3d
00000320: ce47 923d 7e3b 8dbd de35 13be 9355 303e
00000330: 3634 acbd 1a04 e1bd 9e49 62bd 82f7 a7bb
00000340: cee5 f8bd 4ea9 803c cb85 72bd e1d2 73bd
00000350: 5bc8 2c3e ad8b 143e 0b7b 893d 764c 2e3e
00000360: a0d0 093e 63dd 1b3d c8e0 eabd 789b c0bd
00000370: b69f 08bd d177 b23d 23e1 47bd e88b 413e
00000380: 5d4d bdbd 99e1 e1bd d345 e1bb f253 2bbe
00000390: 7e5e 0b3e 45ce fc3c 06db 3cbe abe5 0bbe
000003a0: 7efa 373e 89fe 323e 673c d13d f8b2 11bd
000003b0: 67b6 abbd fc50 71bd bc62 313e 3e8e fe3d
000003c0: 421d 383e 61f8 dd3d 463c 293e 9df8 23be
000003d0: 14b7 d6bd c194 23bd 43b6 263e 3380 48be
000003e0: 1f9f 28be f9c5 223e f708 eebc 407d 12be
000003f0: d800 a9bd 9b8d 1dbe 2305 b13c 3504 ddbd

weight f4 [639, 3, 3, 3]
0.042019308 0.05950597 0.0060220263 0.07145697 -0.13541295 -0.102475755 -0.126506 -0.10992387
0.05052153 0.050316293 -0.1358812 0.012186682 -0.085871644 0.00081159046 0.16696644 0.16871887
0.08593618 0.097681716 -0.05039902 0.022625562 0.11164437 0.034226976 0.040628504 -0.18838842
-0.18269148 -0.12623177 -0.15162481 0.12035462 0.12595077 -0.018163841 -0.09589583 -0.15265274
-0.02695608 -0.044290196 -0.16534191 -0.13923116 -0.1342787 -0.10573499 -0.19035701 0.038131185
-0.068760075 -0.059578355 0.04200597 -0.09622127 -0.18329369 0.08757553 -0.113694936 -0.17662677
0.006456646 -0.124099575 -0.1547689 0.13900833 0.1758472 0.12751785 -0.014788776 0.060382187
0.1188436 0.08733498 -0.18072878 -0.0072570895 -0.09560163 0.011376961 0.036790486 0.031764574
-0.06410336 0.107692994 -0.15135548 -0.14193536 0.11796967 0.007365658 -0.035695005 0.078275405
-0.07517642 -0.19023563 -0.015873522 0.13868597 0.1632026 0.10603428 0.17151846 0.17866398
-0.20040967 -0.20350222 -0.14068544 -0.12638499 0.1614063 -0.08800359 0.050685175 -0.010256599
0.11853452 0.1730958 0.13364854 0.020516755 -0.18419865 -0.0016035193 0.10334683 -0.048300605
-0.18127243 0.050254647 -0.04796697 -0.18687095 -0.06253268 0.12769365 0.021167282 -0.06724611
0.11896138 -0.099541485 -0.17514892 -0.109983705 0.11814912 -0.08007421 -0.18521674 0.09055075
-0.062410608 0.096660376 -0.066541605 0.14852645 -0.06358121 -0.0009961387 0.1698638 0.019467298
-0.08759557 -0.18494399 -0.048900656 0.036694985 0.1752645 -0.17305519 0.15742728 0.08924891
-0.1702659 -0.08675121 0.015049894 -0.025300903 -0.047032483 0.030906852 0.14572628 -0.02165756
-0.010041298 -0.051603895 -0.038632084 -0.05321745 0.1789515 -0.167473 0.060069114 -0.024637377
0.076629296 0.07307284 -0.13476767 -0.082544796 0.11589564 0.0761338 0.0441415 0.012383621
0.15186347 -0.06950234 -0.14353971 -0.049136765 -0.036653075 -0.033542354 0.09080251 0.06847128
-0.09155579 0.019825438 0.11830831 0.08519879 -0.14032318 0.17016707 -0.0574886 0.15259814
0.15237057 0.00079690025 -0.010188207 -0.02636055 0.049238104 0.07619555 0.018761594 -0.20335186
-0.16559042 0.17401285 -0.0744272 -0.024040082 0.08537731 0.08158352 -0.084502265 -0.117068715
-0.06704283 -0.07618846 -0.0859192 0.16765198 -0.1841515 0.029841611 0.18067208 -0.13524185
0.073928826 -0.11389016 0.020886956 -0.16815728 -0.010216263 0.13337664 -0.06374573 0.061105907
0.116939776 -0.022871174 -0.1575373 0.09872941 0.03655532 -0.113316454 0.12365833 0.0046326215
0.13346004 -0.151731 0.04115393 -0.0005628118 0.0049016783 0.014770343 -0.13508886 0.12934999
-0.10086614 0.04691965 -0.08972122 -0.054599725 0.045312136 0.01897491 0.014635388 0.08804749
-0.1914776 -0.1332503 -0.15758742 -0.07894164 -0.14951625 0.007354804 -0.1773735 -0.15969759
0.1783379 -0.115800716 -0.036828086 0.06177302 -0.060608238 -0.18981554 0.14150913 -0.044147775
-0.10999732 0.13225189 0.1592774 0.17767343 0.044976383 -0.07350684 -0.20217107 0.17988569
-0.11029206 0.041791577 -0.103399955 -0.1357263 0.13150029 0.0066193715 -0.11255441 0.029383507
00000000: 701c 2c3d 88bc 733d 6b54 c53b 0858 923d
00000010: b1a9 0abe cfde d1bd ca8a 01be c41f e1bd
00000020: aaef 4e3d 7518 4e3d 7124 0bbe a6aa 473c
00000030: 79dd afbd eac0 543a 40f9 2a3e a4c4 2c3e
00000040: 4fff af3d 5a0d c83d 346f 4ebd 3e59 b93c
00000050: cea5 e43d 9631 0c3d 136a 263d e5e8 40be
00000060: 7a13 3bbe e742 01be 8943 1bbe 7c7c f63d
00000070: 3df9 003e 56cc 94bc 0865 c4bd 0051 1cbe
00000080: ffd2 dcbc a369 35bd 644f 29be 9d92 0ebe
00000090: 5b80 09be 968b d8bd f3ec 42be 722f 1c3d
000000a0: 15d2 8cbd 6f08 74bd 740e 2c3d a80f c5bd
000000b0: 57b1 3bbe cd5a b33d e4d8 e8bd a6dd 34be
000000c0: 4692 d33b eb27 febd bd7b 1ebe 3358 0e3e
000000d0: 4a11 343e 0a94 023e 9f4c 72bc 5053 773d
000000e0: 4664 f33d afdc b23d f710 39be e1cc edbb
000000f0: caca c3bd 6f66 3a3c 9fb1 163d 921b 023d
00000100: 9f48 83bd 258e dc3d eefc 1abe 8157 11be
00000110: 159a f13d 9e5b f13b ed34 12bd db4e a03d
00000120: 18f6 99bd 21cd 42be 3009 82bc b203 0e3e
00000130: 951e 273e 8028 d93d 89a2 2f3e b1f3 363e
00000140: 3138 4dbe e362 50be d80f 10be 116b 01be
00000150: b147 253e 3a3b b4bd 429b 4f3d 4b0b 28bc
00000160: 3ac2 f23d 0740 313e 2adb 083e c112 a83c
00000170: 929e 3cbe 2e2d d2ba 81a7 d33d dbd6 45bd
00000180: 7b9f 39be d1d7 4d3d 0379 44bd 195b 3fbe
00000190: 2211 80bd 20c2 023e 0267 ad3c 54b8 89bd
000001a0: 06a2 f33d 68dc cbbd 3d5a 33be 233f e1bd
000001b0: 2af8 f13d f3fd a3bd 75a9 3dbe ac72 b93d
000001c0: 44a2 7fbd e0f5 c53d f746 88bd 5117 183e
000001d0: de36 82bd de90 82ba c7f0 2d3e e279 9f3c
000001e0: 4e65 b3bd f561 3dbe 0e4c 48bd 7b4d 163d
000001f0: 8978 333e 6135 31be 9e34 213e 22c8 b63d
00000200: 2f5a 2ebe 9eaa b1bd d593 763c d743 cfbc
00000210: 22a5 40bd 5e30 fd3c 4539 153e 326b b1bc
00000220: 4284 24bc 9b5e 53bd ad3c 1ebd 8afa 59bd
00000230: 103f 373e 0b7e 2bbe 080b 763d 53d4 c9bc
00000240: d2ef 9c3d 37a7 953d 8900 0abe 3f0d a9bd
00000250: b15a ed3d 0aec 9b3d b8cd 343d ace4 4a3c
00000260: 1982 1b3e 3e57 8ebd 13fc 12be a243 49bd
00000270: 8921 16bd b563 09bd abf6 b93d ac3a 8c3d
00000280: 9a81 bbbd f568 a23c a14b f23d b47c ae3d
00000290: e1b0 0fbe 4740 2e3e 2b79 6bbd b042 1c3e
000002a0: 0807 1c3e 12e7 503a 70ec 26bc 15f2 d7bc
000002b0: e5ad 493d 6a0c 9c3d eab1 993c 783b 50be
000002c0: 8990 29be 6d30 323e 4a6d 98bd b5ef c4bc
000002d0: 4dda ae3d 4315 a73d 860f adbd b9c1 efbd
000002e0: c04d 89bd b208 9cbd 68f6 afbd f6ac 2b3e
000002f0: 3692 3cbe 6576 f43c 1a02 393e d77c 0abe
00000300: ff67 973d 3f3f e9bd 1f1b ab3c 6c31 2cbe
00000310: 1d62 27bc e393 083e 1f8d 82bd 304a 7a3d
00000320: 1f7e ef3d 545c bbbc 7551 21be a532 ca3d
00000330: 08bb 153d 7512 e8bd 9440 fd3d 3fcd 973b
00000340: c0a9 083e 5f5f 1bbe 0691 283d a989 13ba
00000350: 429e a03b 4fff 713c bc54 0abe 5374 043e
00000360: e892 cebd d22e 403d c2bf b7bd f6a3 5fbd
00000370: 3899 393d 4571 9b3c 44c9 6f3c 3e52 b43d
00000380: b412 44be c472 08be 995e 21be 28ac a1bd
00000390: ca1a 19be 9100 f13b 66a1 35be c487 23be
000003a0: 369e 363e ed28 edbd 0cd9 16bd b505 7d3d
000003b0: 5840 78bd 015f 42be c5e7 103e 4cd4 34bd
000003c0: 4646 e1bd 0a6d 073e 9d19 233e 06f0 353e
000003d0: 2839 383d c18a 96bd ef05 4fbe f433 383e
000003e0: cee0 e1bd a52d 2b3d 5bc3 d3bd d6fb 0abe
000003f0: 03a8 063e 50e7 d83b ed82 e6bd aeb5 f03c

bias f4 [639]
0.05778991 0.07920997 -0.02749506 -0.11655943 0.073042236 6.8404246e-05 0.09570738 -0.043149564
0.15643798 -0.015612651 -0.20069635 -0.03429048 0.049531545 0.09231862 -0.14891441 0.17587985
-0.1707489 -0.02640332 -0.09761329 0.028697083 0.13280648 0.016125223 -0.027024407 0.088663734
0.14156455 0.016687986 0.0049016103 -0.16774595 0.11990838 -0.08631162 -0.17232819 0.042262785
0.12712336 -0.06654816 0.1351753 -0.15162738 -0.101338446 0.016958285 0.14777435 -0.1739985
-0.10100742 0.104570895 -0.07118624 0.14523914 -0.045671277 0.05141563 -0.05379307 -0.043446153
-0.02755729 0.16032228 0.04010729 0.08656608 0.1036005 -0.09427806 -0.20003934 0.18030348
0.121771194 -0.19719827 0.06291683 -0.14143817 0.029826498 0.10772367 0.007636971 0.15831104
-0.14452782 0.15096548 -0.08413977 -0.021479564 0.049538042 -0.04907801 0.03425972 0.14540097
0.1764207 0.0103333 0.11156283 -0.0064301845 0.095650695 0.0033170516 -0.19830598 0.091437675
-0.14498165 -0.10865414 -0.13516857 0.1303442 -0.027569305 -0.19019255 -0.035732586 0.101841435
0.03870545 0.17950794 0.13482751 -0.029041467 0.026307868 -0.08754954 -0.18527529 0.11445775
0.06807588 0.13534677 -0.15081425 0.15323742 0.03457888 0.17065929 0.015077248 -0.11330932
-0.13117284 0.020969389 0.12349973 0.040253542 0.06557636 0.06545637 -0.058032095 -0.1118284
-0.09366201 0.08332297 0.09788884 -0.113883175 -0.10215516 -0.051471498 -0.060348384 -0.061321132
-0.06749222 0.062650956 -0.02421974 -0.16026792 0.0175714 0.10773444 -0.16795872 -0.03799616
0.12947373 -0.19908243 -0.083671965 0.036056485 0.068531506 -0.07155912 0.17838208 0.16176096
-0.03587175 -0.05610257 0.1535733 -0.1681277 0.014334505 -0.0064272583 -0.007930659 -0.07535478
0.15665779 -0.0141153075 0.15631844 -0.06672112 0.17282094 0.08708499 0.0055770692 -0.076016024
0.036544766 -0.1906611 0.17252958 -0.105690725 0.043737676 0.005604018 0.022563877 -0.18909332
0.006922707 -0.07444166 0.17344725 -0.030477624 -0.05243212 -0.015203442 -0.0969317 0.08577368
0.026589826 -0.11705273 0.057893418 0.014511555 -0.028468948 0.022111569 0.048379872 -0.16395165
-0.09955222 -0.19779234 -0.06463034 -0.16611362 -0.09714663 0.17490785 0.07256256 0.14819713
0.12339858 -0.04276596 0.070209086 -0.16927543 0.072790354 0.1534656 0.09193381 -0.07554671
0.13074756 0.15267186 0.062336117 0.017964656 0.052791998 0.15309024 0.108117126 0.049300622
0.012760618 -0.06547868 0.10590113 -0.13437968 0.037611812 -0.05143583 -0.11476801 -0.07445071
0.021981977 0.024604753 0.14837001 -0.068308845 0.084276915 0.06767714 -0.20162973 0.008933084
0.15750688 -0.19475804 -0.0026058569 -0.18024139 -0.1192323 -0.08959794 0.1538515 -0.09056603
0.090087205 0.086470425 0.055596486 -0.19810091 -0.17604965 0.17962836 0.031104203 0.0034857409
-0.0011859442 0.09945654 -0.08825547 -0.100472786 -0.04050576 0.02133089 -0.117727764 -0.10377748
-0.17395297 -0.10442501 -0.12661463 0.076620124 -0.11551696 0.017668184 -0.09609244 -0.0027905542
-0.08841362 -0.04690586 0.0673635 -0.024461567 0.07955951 0.079204775 0.088149846 0.010994591
00000000: 1db5 6c3d d638 a23d 523d e1bc b6b6 eebd
00000010: 2b97 953d 4074 8f38 3b02 c43d 99bd 30bd
00000020: 4731 203e 34cc 7fbc 5883 4dbe 2d74 0cbd
00000030: 97e1 4a3d 8b11 bd3d 057d 18be d919 343e
00000040: cdd8 2ebe c64b d8bc 7ae9 c7bd 2516 eb3c
00000050: 6cfe 073e 0b19 843c 4a62 ddbc 5595 b53d
00000060: 4cf6 103e 3eb5 883c b09d a03b 98c5 2bbe
00000070: 8692 f53d 26c4 b0bd cd76 30be be1b 2d3d
00000080: a02c 023e 674a 88bd 656b 0a3e 3544 1bbe
00000090: 888a cfbd 1aec 8a3c 2952 173e aa2c 32be
000000a0: fadc cebd 4429 d63d 17ca 91bd 92b9 143e
000000b0: ce11 3bbd 3299 523d 1f56 5cbd 98f4 31bd
000000c0: d3bf e1bc 862b 243e 8b47 243d 8f49 b13d
000000d0: 802c d43d db14 c1bd 1dd7 4cbe 7aa1 383e
000000e0: 2d63 f93d 58ee 49be 8ada 803d 2bd5 10be
000000f0: b356 f43c 3a9e dc3d 8e3f fa3b 4a1c 223e
00000100: 1aff 13be b296 1a3e 7951 acbd e9f5 afbc
00000110: 67e8 4a3d 0606 49bd ec53 0c3d fee3 143e
00000120: a1a7 343e 004d 293c 0e7b e43d 4cb4 d2bb
00000130: 83e4 c33d e462 593b b910 4bbe ad43 bb3d
00000140: 1276 14be 1086 debd a169 0abe f378 053e
00000150: 06d9 e1bc d6c1 42be 555c 12bd 3e92 d03d
00000160: 9b89 1e3d eed0 373e 3910 0a3e 5fe8 edbc
00000170: 9983 d73c 2c4d b3bd ceb8 3dbe d368 ea3d
00000180: 5e6b 8b3d 5898 0a3e 0d6f 1abe 45ea 1c3e
00000190: 95a2 0d3d 4fc1 2e3e 9006 773c b70e e8bd
000001a0: 2c52 06be ffc7 ab3c 6ded fc3d e6e0 243d
000001b0: e64c 863d fd0d 863d 10b3 6dbd 4a06 e5bd
000001c0: ded1 bfbd 3ca5 aa3d f279 c83d 953b e9bd
000001d0: b936 d1bd c7d3 52bd de2f 77bd de2b 7bbd
000001e0: 5c39 8abd 254f 803d 7a68 c6bc 461d 24be
000001f0: e6f1 8f3c e0a3 dc3d 5ffd 2bbe dda1 1bbd
00000200: c394 043e 44dc 4bbe 355c abbd f7af 133d
00000210: 3f5a 8c3d 978d 92bd cba9 363e aaa4 253e
00000220: 42ee 12bd cfcb 65bd 5242 1d3e ab29 2cbe
00000230: 46db 6a3c c09b d2bb 98ef 01bc 9b53 9abd
00000240: e66a 203e e443 67bc f111 203e 15a5 88bd
00000250: f9f7 303e 9e59 b23d d9bf b63b 4aae 9bbd
00000260: f7af 153d aa3c 43be 98ab 303e 6174 d8bd
00000270: 4726 333d e9a1 b73b e1d7 b83c aea1 41be
00000280: e0d7 e23b de74 98bd 289c 313e 36ac f9bc
00000290: 10c3 56bd dc17 79bc 2184 c6bd 1caa af3d
000002a0: e8d2 d93c 57b9 efbd a621 6d3d e0c1 6d3c
000002b0: b637 e9bc 5223 b53c f929 463d f1e2 27be
000002c0: 09e2 cbbd 138a 4abe e95c 84bd b019 2abe
000002d0: d0f4 c6bd 0b1b 333e ae9b 943d fdc0 173e
000002e0: 65b8 fc3d 5c2b 2fbd c8c9 8f3d 8a56 2dbe
000002f0: 1c13 953d 1626 1d3e cb47 bc3d 3cb8 9abd
00000300: b0e2 053e 0356 1c3e 2854 7f3d 9d2a 933c
00000310: 6c3c 583d b0c3 1c3e 836c dd3d 73ef 493d
00000320: e911 513c b019 86bd b1e2 d83d d49a 09be
00000330: d80e 1a3d 60ae 52bd 7e0b ebbd 9d79 98bd
00000340: 8c13 b43c e88f c93c 4fee 173e 82e5 8bbd
00000350: 6099 ac3d 509a 8a3d 0678 4ebe 125c 123c
00000360: 7c49 213e a76e 47be 06c7 2abb 3391 38be
00000370: 1030 f4bd 207f b7bd 3f8b 1d3e af7a b9bd
00000380: a47f b83d 6817 b13d 24b9 633d f7da 4abe
00000390: 5c46 34be 7ff0 373e 3ece fe3c 0771 643b
000003a0: af71 9bba dfaf cb3d 49bf b4bd adc4 cdbd
000003b0: 5ee9 25bd 1ebe ae3c 411b f1bd 4a89 d4bd
000003c0: ba20 32be c8dc d5bd 44a7 01be 03eb 9c3d
000003d0: 2894 ecbd debc 903c 1dcc c4bd bbe1 36bb
000003e0: 3312 b5bd 5c20 40bd e0f5 893d a063 c8bc
000003f0: 19f0 a23d 1d36 a23d e887 b43d a822 343c

weight f4 [639, 3, 3, 3]
-0.13781184 0.14572372 0.16286266 0.0047057625 0.032098677 -0.1737148 -0.13447827 0.049395613
0.07695905 -0.19087097 0.09571048 -0.038468547 -0.16282868 0.105452366 0.01692683 -0.18526095
-0.19124351 -0.053368606 -0.054574132 0.09573685 0.09083801 0.018131785 0.14753781 -0.15871193
-0.031149331 0.13640781 -0.024690378 -0.20169528 -0.009120949 -0.14136194 -0.07591935 -0.10752447
-0.044724114 0.12007523 0.14513579 0.055782005 0.060989097 0.02286638 -0.14592797 -0.04112412
-0.13408084 0.028436588 -0.08029169 0.03813794 -0.057242677 -0.06737665 0.0037611797 0.015289108
-0.1005475 -0.087350145 0.08023616 -0.08103909 0.01396692 0.03184391 -0.039614704 -0.017218117
0.08694771 -0.15662213 -0.07140687 -0.20035346 0.12650383 -0.012088659 -0.07872159 0.021015907
0.118469685 -0.13844696 0.087745145 -0.07991368 0.096724 -0.17348087 0.15629567 -0.15545107
0.0420269 0.07593474 0.03131403 -0.08544466 -0.091260955 -0.0128924195 0.12218763 0.048509046
0.081234865 0.07664949 0.003724057 -0.015546767 -0.112973765 -0.18801112 0.12130953 -0.20266424
0.082294576 -0.08295799 -0.14404075 0.13089035 -0.07345217 -0.09695075 -0.05587638 0.0070632137
-0.11906958 -0.09515154 -0.165209 -0.11082866 -0.0032178606 -0.20182383 -0.18782255 -0.028276667
0.03372027 0.09799642 -0.02307085 -0.044315375 0.04210244 -0.047032587 0.097075604 0.0921242
-0.18539824 -0.173668 -0.11684224 -0.09831884 -0.0563023 -0.07697653 0.17641473 0.056690127
-0.17765187 0.029497927 -0.17681514 -0.17352954 0.10740031 0.046997853 -0.0075520216 0.021952132
-0.14161079 -0.17938146 0.1756312 0.019252177 0.115201235 0.15936899 0.00871972 0.010767182
-0.0039375164 -0.18007463 -0.038828213 0.15639573 0.030518308 0.011199648 -0.12501888 -0.004774023
0.055152424 0.030568164 0.1417407 -0.043140236 0.15273699 -0.018568955 -0.02825419 0.033088416
0.010304046 -0.2027039 -0.08739776 -0.06289639 0.028981974 0.10255047 0.15906101 0.072870575
-0.15414906 0.13809928 0.14913946 -0.13445854 -0.0741948 -0.1932298 0.10557756 -0.12121597
-0.19386344 0.17530476 -0.10387727 -0.14587595 0.043087997 -0.19976471 0.1155894 -0.15003231
-0.09423265 0.15809864 -0.17296854 -0.10110483 -0.13866428 0.096735016 0.039090518 -0.14119017
-0.12578765 -0.08602138 -0.026633194 0.06461082 -0.13002703 0.118337594 -0.0028974998 -0.1417224
0.09130033 0.09046612 -0.019605763 -0.20050737 0.1164925 0.069174886 -0.0953226 -0.05851628
0.17805353 -0.0047614113 0.12107987 0.026720285 0.16385971 0.13270868 0.022847414 -0.029048717
0.1769877 0.09676087 -0.03483775 0.15009375 0.0025574788 0.13289605 0.15438578 -0.070721336
0.15549196 -0.019032197 -0.0049851118 -0.12437265 0.13382907 0.1591032 0.16263323 -0.18585028
-0.12969108 -0.11463934 -0.15226237 -0.06293507 -0.06658599 -0.1766406 -0.060684107 0.1235277
0.111482106 0.17741752 -0.0076242764 -0.06467095 -0.057841104 0.10824263 -0.14836133 -0.07894261
0.10723249 -0.08045535 -0.18717617 -0.19458632 0.0069603156 -0.17955555 -0.011367832 -0.11799239
0.08599388 0.010752808 -0.17537384 0.14281859 0.08181772 -0.08751674 -0.12519102 0.02299525
00000000: 8c1e 0dbe 9938 153e 78c5 263e cc32 9a3b
00000010: e779 033d 4be2 31be acb4 09be 0e53 4a3d
00000020: b59c 9d3d ae73 43be db03 c43d 3291 1dbd
00000030: 90bc 26be 69f7 d73d 23aa 8a3c 0cb5 3dbe
00000040: 57d5 43be 0a99 5abd 2089 5fbd ae11 c43d
00000050: 4709 ba3d 1c89 943c 2714 173e 6185 22be
00000060: e22c ffbc 7dae 0b3e 7a43 cabc 3589 4ebe
00000070: 0870 15bc 2fc1 10be 9b7b 9bbd ca35 dcbd
00000080: a230 37bd 01ea f53d 7a9e 143e ac7b 643d
00000090: b4cf 793d 4652 bb3c 246e 15be c471 28bd
000000a0: 7d4c 09be d9f3 e83c f86f a4bd 8736 1c3d
000000b0: 4c77 6abd c5fc 89bd 207e 763b 2b7f 7a3c
000000c0: d9eb cdbd a2e4 b2bd db52 a43d d3f7 a5bd
000000d0: 82d5 643c c36e 023d 0743 22bd 020d 8dbc
000000e0: a411 b23d 8d61 20be c43d 92bd 7529 4dbe
000000f0: 388a 013e 830f 46bc c938 a1bd 8d29 ac3c
00000100: 3ca0 f23d 0ac5 0dbe bab3 b33d c9a9 a3bd
00000110: 3c17 c63d f8a4 31be f90b 203e 912e 1fbe
00000120: 6624 2c3d ac83 9b3d 2443 003d 9cfd aebd
00000130: 06e7 babd ba3a 53bc 823d fa3d 6cb1 463d
00000140: 775e a63d 68fa 9c3d 4f0f 743b deb7 7ebc
00000150: ca5e e7bd fd85 40be 2271 f83d 3787 4fbe
00000160: 0f8a a83d e1e5 a9bd 6b7f 13be 1f08 063e
00000170: 176e 96bd 1d8e c6bd a2de 64bd 8872 e73b
00000180: c1da f3bd d0de c2bd 8c2c 29be 23fa e2bd
00000190: bee2 52bb e8aa 4ebe 8e54 40be 78a4 e7bc
000001a0: 441e 0a3d 59b2 c83d 14ff bcbc 0a84 35bd
000001b0: 9c73 2c3d 3ea5 40bd 93cf c63d 9dab bc3d
000001c0: 09d9 3dbe 06d6 31be fc4a efbd 635b c9bd
000001d0: 3e9d 66bd dfa5 9dbd 10a6 343e e833 683d
000001e0: 5fea 35be a3a5 f13c 070f 35be bab1 31be
000001f0: b2f4 db3d d280 403d f376 f7bb f5d4 b33c
00000200: 6b02 11be c6af 37be aad8 333e beb6 9d3c
00000210: a0ee eb3d a031 233e 28dd 0e3c d668 303c
00000220: 4806 81bb 7c65 38be 550a 1fbd 3426 203e
00000230: 8801 fa3c ba7e 373c f304 00be 686f 9cbb
00000240: 82e7 613d 166a fa3c 7924 113e d1b3 30bd
00000250: 1667 1c3e ec1d 98bc 5575 e7bc b887 073d
00000260: 4dd2 283c 9c91 4fbe 99fd b2bd d3cf 80bd
00000270: 9b6b ed3c fb05 d23d e4e0 223e 2b3d 953d
00000280: 40d9 1dbe e669 0d3e 04b8 183e 80af 09be
00000290: 71f3 97bd 08de 45be 0c39 d83d 1440 f8bd
000002a0: 2384 46be 1783 333e 9bbd d4bd 8160 15be
000002b0: 0a7d 303d 1f8f 4cbe 23ba ec3d 12a2 19be
000002c0: 0cfd c0bd 9ce4 213e aa1e 31be 0d10 cfbd
000002d0: 02fe 0dbe 021d c63d 611d 203d 2894 10be
000002e0: 7ace 00be fa2b b0bd db2d dabc ad52 843d
000002f0: ce25 05be fb5a f23d fbe3 3dbb ad1f 11be
00000300: abfb ba3d 4d46 b93d 449c a0bc ce51 4dbe
00000310: 9f93 ee3d 90ab 8d3d 7f38 c3bd c4ae 6fbd
00000320: aa53 363e 9d05 9cbb b9f8 f73d 80e4 da3c
00000330: d7ca 273e c9e4 073e 802a bb3c 93f7 edbc
00000340: 433c 353e 902a c63d 07b2 0ebd 2db2 193e
00000350: 609b 273b e715 083e 4e17 1e3e 59d6 90bd
00000360: 4939 1f3e 69e9 9bbc 265a a3bb 17b7 febd
00000370: 7d0a 093e f3eb 223e 5389 263e 894f 3ebe
00000380: bdcd 04be 08c8 eabd abea 1bbe 1ae4 80bd
00000390: 3c5e 88bd 46e1 34be e68f 78bd 17fc fc3d
000003a0: bb50 e43d f0ac 353e 11d5 f9bb 3472 84bd
000003b0: cbea 6cbd 50ae dd3d 08ec 17be aaac a1bd
000003c0: b59c db3d c6c5 a4bd 1cab 3fbe a341 47be
000003d0: 5c13 e43b 69dd 37be 2540 3abc ffa5 f1bd
000003e0: 8f1d b03d 8c2c 303c 3395 33be 093f 123e
000003f0: 0c90 a73d fa3b b3bd 1332 00be 8960 bc3c

bias f4 [639]
-0.050543074 -0.10825321 0.04042997 0.15163778 -0.123840116 0.014258185 0.023108194 -0.0752914
0.04737787 0.06854747 -0.1341895 0.07419506 0.026577685 -0.1298588 0.1386689 -0.027695732
-0.13670872 0.11997631 0.061102945 -0.105647735 -0.013553988 0.111732565 0.067584865 0.031102972
0.00922825 0.09035844 -0.053947005 -0.14634548 -0.19833077 -0.18100539 0.12516336 0.17266507
-0.02607633 0.080582365 -0.16417243 -0.19627748 0.13962631 -0.034967493 0.09068892 -0.084383175
0.13548465 -0.049815346 -0.17384155 -0.0822236 0.11625467 -0.12979311 -0.15005916 -0.06372282
0.07342943 0.1513585 -0.005561375 -0.045755662 -0.0019891025 0.06250453 0.111497186 0.104794525
-0.010641975 -0.18873441 -0.05359905 -0.0066140126 0.1475118 -0.17747384 0.15136336 -0.1667653
0.1776824 0.021963006 0.112112455 -0.15009135 0.031681165 -0.027808493 0.112345256 0.17722283
0.022118138 0.100390196 0.120723665 -8.69896e-05 0.120933 -0.044879396 0.13091004 0.024064118
-0.1165143 -0.20296739 0.017707497 0.10957969 0.1801484 -0.16876699 0.06955799 -0.1152764
-0.05877814 -0.028760543 0.076689385 0.021937666 0.13066566 -0.09146515 -0.11767791 0.009649499
-0.11973685 0.1385455 -0.07529419 0.112286106 0.14629896 -0.1107489 -0.12681007 -0.0056108134
-0.15326585 0.12353179 -0.008109679 0.15262751 0.1617232 -0.052647524 -0.15334515 0.14871614
0.13104208 -0.19191003 -0.023026826 0.15448561 0.08072429 -0.12926652 -0.019407818 -0.07903628
-0.19529495 -0.17738007 0.06793855 -0.039731544 0.14839293 -0.13114727 0.16570841 0.14418598
-0.15060583 0.18029876 0.09829611 0.1265292 0.03964311 0.080999844 -0.02290088 0.1551709
-0.024540225 -0.11815406 0.046555083 -0.1224687 0.10857114 0.1706113 -0.032679453 0.061410937
0.06057925 0.14917032 -0.11540518 -0.09610047 0.042262435 -0.19040756 0.11019897 0.014815287
-0.16533154 -0.0624584 0.15434815 -0.042200815 0.03807234 0.141669 -0.121170074 0.17981301
-0.09761683 -0.19790594 0.12125437 0.050635815 -0.19885492 -0.13897352 0.0694451 0.02521641
-0.012432889 0.17915969 -0.14755872 0.02004882 0.019924061 0.092402585 0.058456 -0.17996487
-0.16936536 0.08445731 0.10992654 -0.13124481 -0.14597853 -0.105882965 0.1372331 -0.036761284
-0.018308653 0.15324043 -0.113773584 -0.11047545 -0.11237306 0.13365942 0.15689625 0.09496224
0.024454137 -0.17132668 0.118527435 -0.16224106 -0.19563408 0.04355498 -0.06041956 0.03473472
-0.075600766 0.04842615 0.017501893 -0.058304638 0.1638643 0.14787161 -0.046150908 -0.01439699
0.10600256 -0.039157886 -0.08790646 0.040943015 0.027906377 0.11722341 -0.14619704 0.16368254
-0.02450438 -0.19713022 0.12560084 0.045186553 -0.13465656 0.1259549 0.012499464 0.09900204
-0.14509438 -0.15679884 0.13587983 0.063073464 -0.15376057 0.035301786 0.11221376 0.05423167
0.038630392 -0.19919729 -0.105559416 -0.026578832 -0.08061058 -0.035380878 0.04599527 -0.013466583
0.14606471 0.018110787 -0.12399606 0.1668914 0.115436144 -0.16283949 0.1292191 0.15765809
0.15835674 -0.102484316 0.15816872 0.16304484 0.065715455 0.068732396 -0.19790769 -0.17653535
00000000: 4106 4fbd dcb3 ddbd e599 253d ef46 1b3e
00000010: e39f fdbd 2a9b 693c 654d bd3c 6132 9abd
00000020: 4c0f 423d 9e62 8c3d f968 09be 94f3 973d
00000030: 72b9 d93c b5f9 04be 38ff 0d3e 29e2 e2bc
00000040: 5ffd 0bbe 24b6 f53d 1547 7a3d d75d d8bd
00000050: 8c11 5ebc 0bd4 e43d ef69 8a3d a9cb fe3c
00000060: 1632 173c d90d b93d 89f7 5cbd 97db 15be
00000070: 3917 4bbe 7a59 39be d32a 003e 1dcf 303e
00000080: 079e d5bc 5e08 a53d d11c 28be f7fc 48be
00000090: 33fa 0e3e 133a 0fbd 1dbb b93d 16d1 acbd
000000a0: 7dbc 0a3e 2d0b 4cbd 8503 32be d964 a8bd
000000b0: ee16 ee3d 7ce8 04be 1ca9 19be 1c81 82bd
000000c0: 2b62 963d b9fd 1a3e 323c b6bb 4a6a 3bbd
000000d0: 9a5b 02bb 6002 803d a358 e43d 839e d63d
000000e0: ae5b 2ebc 9843 41be ad8a 5bbd 5cba d8bb
000000f0: 550d 173e b4bb 35be fffe 1a3e 86c4 2abe
00000100: 60f2 353e c3eb b33c 379b e53d 8cb1 19be
00000110: 1cc4 013d a3ce e3bc 4515 e63d e779 353e
00000120: 1931 b53c 6099 cd3d f83d f73d 306e b6b8
00000130: b9ab f73d 75d3 37bd 480d 063e 1d22 c53c
00000140: 0d9f eebd afd6 4fbe 500f 913c 516b e03d
00000150: d278 383e 41d1 2cbe 6b74 8e3d 0916 ecbd
00000160: 59c1 70bd 3b9b ebbc 530f 9d3d 9fb6 b33c
00000170: 38cd 053e 1552 bbbd 1e01 f1bd ef18 1e3c
00000180: 9838 f5bd dfde 0d3e d733 9abd 42f6 e53d
00000190: 65cf 153e 52d0 e2bd 80da 01be eada b7bb
000001a0: b9f1 1cbe 3cfe fc3d 76de 04bc 634a 1c3e
000001b0: c49a 253e eea4 57bd 8306 1dbe 0b49 183e
000001c0: e52f 063e 1084 44be c1a2 bcbc 7a31 1e3e
000001d0: c752 a53d 715e 04be 25fd 9ebc c6dd a1bd
000001e0: 66fb 47be 1fa3 35be 5e23 8b3d 8bbd 22bd
000001f0: 51f4 173e 784b 06be 77af 293e 7da5 133e
00000200: 6a38 1abe 3da0 383e 794f c93d df90 013e
00000210: d060 223d 3fe3 a53d a09a bbbc 1fe5 1e3e
00000220: 9508 c9bc c1fa f1bd 8bb0 3e3d dfd0 fabd
00000230: 8c5a de3d bbb4 2e3e e4da 05bd 098a 7b3d
00000240: f321 783d 1bc0 183e 8d59 ecbd 53d0 c4bd
00000250: 601b 2d3d 33fa 42be ffaf e13d d1bb 723c
00000260: ac4c 29be 61d4 7fbd 710d 1e3e c3da 2cbd
00000270: bef1 1b3d ae11 113e 0428 f8bd e720 383e
00000280: 55eb c7bd dba7 4abe 3654 f83d 8067 4f3d
00000290: a0a0 4bbe 134f 0ebe 3c39 8e3d a592 ce3c
000002a0: 51b3 4bbc a375 373e a219 17be 6c3d a43c
000002b0: c937 a33c 913d bd3d 8f6f 6f3d b648 38be
000002c0: 1d6e 2dbe f4f7 ac3d 2a21 e13d 0a65 06be
000002d0: 657b 15be 2bd9 d8bd d586 0c3e 0093 16bd
000002e0: 07fc 95bc 0feb 1c3e 2002 e9bd f440 e2bd
000002f0: d923 e6bd 04de 083e 69a9 203e 907b c23d
00000300: 0b54 c83c 4370 2fbe 83be f23d 8522 26be
00000310: 4d54 48be b566 323d 807a 77bd fe45 0e3d
00000320: 93d4 9abd 805a 463d 2160 8f3c d8d0 6ebd
00000330: 0bcc 273e a86b 173e bc08 3dbd 5ae1 6bbc
00000340: df17 d93d 0564 20bd 4d08 b4bd ddb3 273d
00000350: ea9b e43c d412 f03d adb4 15be 659c 273e
00000360: 69bd c8bc 81dc 49be 829d 003e 8915 393d
00000370: 69e3 09be 52fa 003e 8dca 4c3c 95c1 ca3d
00000380: 9f93 14be e08f 20be 1524 0b3e a92c 813d
00000390: 6973 1dbe 9b98 103d 54d0 e53d 0722 5e3d
000003a0: e73a 1e3d 60fa 4bbe 892f d8bd dabb d9bc
000003b0: 2917 a5bd 8aeb 10bd 8965 3c3d f1a2 5cbc
000003c0: fd91 153e 135d 943c a5f1 fdbd 94e5 2a3e
000003d0: c969 ec3d 65bf 26be 0352 043e 1f71 213e
000003e0: 4528 223e 4ce3 d1bd fbf6 213e 3af5 263e
000003f0: d395 863d 92c3 8c3d 50a8 4abe afc5 34be
