mlruns/461438047419225633/4a73f6dc88f44f2f800d037c2120b8c1/artifacts/model/data/model.pth (torch, 218548 bytes, 6 tensors)

weight f4 [639, 3, 3, 3]
0	0xbda81b92	-0.082083836
1	0xbd9f82b6	-0.07788603
2	0x3d85eb37	0.06539004
3	0xbe32e10e	-0.17468664
4	0x3e37296a	0.17886892
5	0x3cad0b6f	0.021123616
6	0xbdffe868	-0.124955
7	0xbd5678be	-0.052361242
8	0xbdafb926	-0.08580236
9	0xbe08996a	-0.13339773
10	0xbdabccb1	-0.08388651
11	0x3df1e02b	0.11810335
12	0xbe239900	-0.15976334
13	0xbccf9d27	-0.02534349
14	0x3c916224	0.017746992
15	0x3d10391e	0.03521072
16	0xbdbcbd71	-0.092158206
17	0xbd9cefa7	-0.076628976
18	0x3dc03bc3	0.09386399
19	0x3daca197	0.08429258
20	0xbbb96763	-0.0056580766
21	0xbe3396d4	-0.17538005
22	0x3d8bf5be	0.06833981
23	0x3deb3f24	0.114866525
24	0xbdfa8c24	-0.12233761
25	0xbe3afa7e	-0.18259618
26	0x3e1651e1	0.14679672
27	0xbe421a0e	-0.18955252
28	0x3e21f2a5	0.15815218
29	0x3a20d89f	0.00061357947
30	0x3dae7199	0.08517761
31	0xbd213eca	-0.03936652
32	0xbdde0fa7	-0.10842829
33	0xbe354ff6	-0.17706284
34	0x3dc46951	0.095904
35	0x3dcb847c	0.09937379
36	0x3db4688c	0.08809003
37	0xbdcda7e6	-0.1004179
38	0xbe444622	-0.19167379
39	0x3d9b854b	0.07593783
40	0x3e147b2e	0.14500114
41	0xbd29b8f4	-0.04143615
42	0xbc1e83a4	-0.00967494
43	0x3e339eda	0.17541066
44	0x3e1fec90	0.15617585
45	0x3e03512f	0.12823938
46	0x3d65a12e	0.056061916
47	0xbddaa6b3	-0.106763266
48	0xbe0abe0c	-0.1354906
49	0x3c067eab	0.008208911
50	0x3e241ce1	0.16026641
51	0x3c21343a	0.009839112
52	0x3d8988e0	0.0671556
53	0x3dff89ec	0.124774784
54	0xbe3ec160	-0.18628454
55	0xbe451094	-0.19244605
56	0x3bd7033a	0.006561664
57	0x3caee9f1	0.021351786
58	0x3d8cbd8e	0.06872092
59	0x3e1d078d	0.15334912
60	0xbdfacadb	-0.12245723
61	0xbc9bfb16	-0.019040626
62	0xbd87d672	-0.06632699
63	0xbe357d94	-0.17723686
64	0xbc678587	-0.0141309565
65	0xbd1b631f	-0.037936326
66	0xbe40b43c	-0.18818754
67	0x3d93d7d9	0.07218904
68	0x3cc0a97f	0.023518322
69	0xbd288f79	-0.04115245
70	0xbdf98d93	-0.12185206
71	0xbe19d53e	-0.15022752
72	0xbd8076b4	-0.06272641
73	0xbaadfe30	-0.0013274606
74	0xbd8287c8	-0.063735545
75	0x3d14f62e	0.036367588
76	0x3dbfb213	0.09360137
77	0x3e3970ea	0.1810948
78	0x3e2d9cff	0.1695442
79	0x3ca24c0d	0.019811654
80	0x3cf88324	0.03033597
81	0xbe41f2db	-0.18940298
82	0x3cd61223	0.026131695
83	0x3c6cefa6	0.0144614335
84	0x3e14d3a8	0.14533865
85	0x3d835496	0.06412618
86	0x3e3b93c8	0.18318093
87	0x3c49e543	0.012322727
88	0xbd77e9bc	-0.06052564
89	0xbe1d8447	-0.15382491
90	0xbe3948c8	-0.1809417
91	0x3d9c8b50	0.07643759
92	0xbe0281d7	-0.12744842
93	0x3d40181f	0.046898004
94	0x3d0cffad	0.03442352
95	0xbe2181fc	-0.15772241
96	0x3b4c1781	0.003114194
97	0xbe3afc62	-0.18260339
98	0x3e0e9b44	0.13926417
99	0xbdf1184f	-0.117722146
100	0xbd9b8b83	-0.07594969
101	0x3e2d1a29	0.1690451
102	0x3a807f1c	0.0009803507
103	0xbd2e7bbd	-0.042598475
104	0xbe391fa6	-0.18078479
105	0xbd14f4e1	-0.036366347
106	0xbd72d84f	-0.05928832
107	0xbd949a27	-0.07255965
108	0xbdfb1ad0	-0.122609735
109	0xbe339774	-0.17538244
110	0xbe0bf4d1	-0.13667609
111	0xbd865ab1	-0.06560267
112	0xbe2cad6b	-0.16863029
113	0x3ca965da	0.02067845
114	0xbe2c2c7a	-0.16813841
115	0xbe35f0f9	-0.17767705
116	0xbdb2ccb7	-0.087304525
117	0x3e07e4f7	0.13270937
118	0xbc9a0bc7	-0.018804444
119	0xbd83886e	-0.06422506
120	0x3e18640c	0.14881915
121	0x3dc34511	0.09534658
122	0xbe16b9c0	-0.14719296
123	0xbe00c4fd	-0.12575145
124	0xbe32dc50	-0.17466855
125	0xbe3adb7c	-0.18247789
126	0xbd091d25	-0.03347506
127	0x3e342729	0.17593063
128	0xbe114a94	-0.14188606
129	0xbce78727	-0.028262688
130	0x3c9f805c	0.019470386
131	0x3d154149	0.036439214
132	0x3e10b7c6	0.14132604
133	0x3dea96d2	0.11454548
134	0xbd507d84	-0.05090095
135	0xbdf657f5	-0.12028495
136	0x3d7fa765	0.0624155
137	0xbe2722be	-0.16321847
138	0x3d179565	0.037007708
139	0xbe10eea5	-0.14153536
140	0xbdb77893	-0.089585446
141	0xbdab2869	-0.08357317
142	0x3c89011d	0.016724164
143	0x3da151da	0.0787694
144	0x3c028a62	0.007967563
145	0x3e4016c0	0.18758678
146	0x3dca1ff6	0.09869377
147	0xbe1fbdc9	-0.15599741
148	0x3d518266	0.05114975
149	0xbdd97741	-0.10618449
150	0xbd7a8d0b	-0.061169665
151	0xbdd2f1c3	-0.10300019
152	0xbd035a59	-0.032068584
153	0xbe06abae	-0.13151428
154	0xbd1efaea	-0.03881351
155	0x3d7ab326	0.061206006
156	0xbe1292ca	-0.14313808
157	0xbe3f7102	-0.18695453
158	0x3e1c7f8b	0.15283029
159	0xbb8417ca	-0.004031156
160	0x3e0ba161	0.1363578
161	0x3d8d5b1a	0.06902142
162	0xbe0445d2	-0.1291726
163	0xbdd108c8	-0.10206753
164	0xbdb2f68f	-0.087384336
165	0x3e2778cc	0.16354674
166	0xbd00cb21	-0.03144372
167	0xbcd9b6f1	-0.026576491
168	0xbd2a9408	-0.04164508
169	0xbe261ad2	-0.16221169
170	0xbddf3ef7	-0.109006815
171	0xbda04528	-0.078256905
172	0x3e301732	0.17196348
173	0x3e05a18e	0.1304991
174	0xbccfb338	-0.025354013
175	0x3e1fa624	0.15590721
176	0x3d7b985b	0.061424594
177	0x3dafeaec	0.0858973
178	0xbe2afa6f	-0.16697095
179	0xbde60abd	-0.11232517
180	0x3d8d7244	0.0690656
181	0x3dc07377	0.09397023
182	0xbca0c85c	-0.019626789
183	0xbc44d317	-0.012013218
184	0xbdf993ed	-0.12186418
185	0x3d8f647c	0.07001588
186	0x3dd2ae2d	0.10287128
187	0x3e047fd1	0.12939383
188	0xbe31f054	-0.17376834
189	0xbe3036d2	-0.17208412
190	0xbd8cc270	-0.068730235
191	0x3d8b472b	0.068006836
192	0x3d34276a	0.0439829
193	0x3d56d977	0.052453484
194	0x3e08e9ce	0.1337044
195	0xbe0bdcb2	-0.13658407
196	0xbe1545f7	-0.1457747
197	0xbe073a9d	-0.13205953
198	0xbde43317	-0.11142557
199	0x3c62b719	0.013837599
200	0xbd85d485	-0.065346755
201	0xbdaa0374	-0.0830144
202	0xbe057bf8	-0.13035572
203	0xbc90e80e	-0.017688777
204	0xbc9b82c1	-0.018983247
205	0xbd1f0439	-0.038822386
206	0xba0461b1	-0.00050499575
207	0xbdd6c4af	-0.10486733
208	0x3dd781d6	0.10522811
209	0x3e336358	0.17518365
210	0x3e32fef9	0.17480077
211	0x3e269000	0.16265869
212	0xbe3c1952	-0.18369034
213	0x3d5a2fe6	0.053268336
214	0xbe23e668	-0.16005862
215	0xbe25c804	-0.16189581
216	0xbe37f9c5	-0.17966373
217	0xbe3d0c01	-0.1846161
218	0xbe139853	-0.14413576
219	0xbe259d26	-0.16173229
220	0x3da1aa2f	0.07893788
221	0x3e00fd1b	0.12596552
222	0x3d825c8c	0.06365308
223	0xbdaeab3a	-0.085287526
224	0x3c7875bd	0.01516479
225	0x3d81833e	0.063238606
226	0xbe42d09a	-0.19024888
227	0x3d1cbe73	0.038267564
228	0x3cf9064c	0.03039851
229	0xbe1ea1c7	-0.154914
230	0x3de08bd9	0.10964174
231	0xbe07a52b	-0.132466
232	0x3d3ace22	0.04560674
233	0xbe34fc10	-0.17674279
234	0x3e318e1f	0.17339371
235	0xbe307fd9	-0.1723627
236	0xbe441013	-0.19146757
237	0xbe2da6bc	-0.16958135
238	0xbd8ddde4	-0.06927088
239	0xbd6596ce	-0.05605202
240	0x3ceaad1b	0.028646996
241	0x3da28797	0.07936018
242	0x3d2f38f4	0.042778924
243	0xbdcc27ce	-0.0996853
244	0xbcd1dc2d	-0.025617683
245	0x3d934b2e	0.07192074
246	0xbdd1ca38	-0.10243648
247	0xbe3fbde3	-0.1872478
248	0xbe43e3aa	-0.19129816
249	0x3e24dd8e	0.16100141
250	0xbb52bb3a	-0.0032155053
251	0x3e193bba	0.1496419
252	0xbe106199	-0.1409973
253	0xbce94826	-0.028476786
254	0x3e33dbf1	0.1756437
255	0xbdbe1362	-0.09281041

bias f4 [639]
0	0x3d806f12	0.06271185
1	0xba1bb8e2	-0.00059403304
2	0x3d1b7e42	0.037962206
3	0xbe2bcd53	-0.16777544
4	0xbe245ccf	-0.16051029
5	0xbe0bd518	-0.13655508
6	0xbd874171	-0.06604279
7	0xbd81f284	-0.06345084
8	0xbdfc7d57	-0.12328594
9	0x3dd50536	0.104013845
10	0xbd0286c6	-0.03186681
11	0xbd106241	-0.035249952
12	0xbe2ba226	-0.16761073
13	0xbdec27bb	-0.115310155
14	0x3e04561a	0.1292347
15	0x3d5786ac	0.052618667
16	0xbbab0bc9	-0.0052199108
17	0x3d8b4dcb	0.06801947
18	0xbe24f365	-0.16108473
19	0x3e040aea	0.12894788
20	0xbddfdc54	-0.10930696
21	0xbd548f88	-0.051894695
22	0xbd69ff63	-0.05712832
23	0xbcc0659c	-0.023485951
24	0x3d771c8f	0.06032997
25	0xbda5b364	-0.08090857
26	0x3b0dc1ce	0.002163041
27	0x3e36c19e	0.17847297
28	0xbe2ee7fe	-0.17080685
29	0x3e171cae	0.14757034
30	0xbe19a362	-0.15003732
31	0xbcb455fd	-0.022013659
32	0xbe42904f	-0.19000362
33	0x3e0d345c	0.13789505
34	0x3e1afdb8	0.15135849
35	0xbe3a6ed4	-0.1820634
36	0xbd7e3767	-0.062064555
37	0xbd3ac8ae	-0.04560154
38	0xbcae5b0c	-0.021283649
39	0x3e182bd9	0.14860477
40	0xbd4bfabc	-0.049799666
41	0x3e279706	0.16366205
42	0x3e3c4ccc	0.1838867
43	0xbe1def38	-0.15423286
44	0xbd2383d2	-0.039920636
45	0xbd9557ee	-0.07292162
46	0xbcada727	-0.021197869
47	0x3d1e697c	0.038674816
48	0x3ba2c3f2	0.004967206
49	0xbdf005f8	-0.117198884
50	0x3e41cb25	0.1892515
51	0x3d714c01	0.058910374
52	0xbdb7e360	-0.08978915
53	0x3d89abcb	0.0672222
54	0xbe157d96	-0.14598688
55	0xbe02c349	-0.12769808
56	0x3e350352	0.17677048
57	0xbd00a9fa	-0.031412102
58	0x3e039ceb	0.12852828
59	0xbdc2985b	-0.09501716
60	0xbde32941	-0.11091853
61	0xbdb6badb	-0.089223586
62	0xbbaad5b5	-0.005213464
63	0xbda12fd6	-0.07870452
64	0x3c75b1e3	0.014996025
65	0x3e34a033	0.17639236
66	0xbe407aef	-0.18796895
67	0x3db4ed59	0.08834333
68	0x3d5391bc	0.051652655
69	0x3e2c938e	0.16853163
70	0xbcc2b5ba	-0.023768295
71	0x3d1e8d94	0.03870924
72	0xbd905e43	-0.07049229
73	0xbe01b641	-0.1266718
74	0xbd34b82f	-0.044120964
75	0xbe14710d	-0.1449625
76	0x3deebe8d	0.116574384
77	0x3d215f3e	0.03939747
78	0x3e25055b	0.16115324
79	0xbdb35853	-0.08757081
80	0xbd0aed55	-0.033917744
81	0x3d7d8fe0	0.061904788
82	0x3daaaf13	0.08334174
83	0xbd5dac81	-0.05411959
84	0x3d82171a	0.063520625
85	0xbd019f9e	-0.031646363
86	0xbdd5b1d3	-0.10434308
87	0xbc5b2508	-0.013375528
88	0x3e3c5c83	0.18394665
89	0x3d175916	0.036950193
90	0xbd96ed9a	-0.07369538
91	0x3d418fe4	0.047256365
92	0x3e22b0a7	0.158877
93	0xbdfc19ef	-0.12309634
94	0xbe0ea74e	-0.13931009
95	0x3e227f4b	0.15868871
96	0x3e3c9d98	0.18419492
97	0xbc84f681	-0.016230823
98	0xbd59f514	-0.05321224
99	0xbe44fa91	-0.19236208
100	0xbdcf5121	-0.10122896
101	0xbe1e4af7	-0.15458284
102	0xbdc766f4	-0.097364336
103	0x3e17fe3c	0.14843076
104	0xbdd8dd97	-0.1058914
105	0xbdccba11	-0.09996427
106	0x3d8128f2	0.06306638
107	0xbd5677d9	-0.05236039
108	0xbdaf57ee	-0.08561693
109	0xbdb0cece	-0.08633195
110	0xbd1291c1	-0.035783533
111	0xbe03bdec	-0.12865418
112	0xbe2e4a91	-0.17020632
113	0xbe0c5d12	-0.13707379
114	0xbe3786a3	-0.17922454
115	0x3e33a5b8	0.17543685
116	0x3cb426fb	0.021991244
117	0xbdb89af8	-0.09013933
118	0x3e326b0a	0.17423645
119	0x3dd815bf	0.10551023
120	0xbc253b60	-0.010084957
121	0x3e20e94b	0.15713994
122	0xbd8caf85	-0.06869415
123	0xbdb789fb	-0.089618646
124	0x3dfbc3f5	0.12293235
125	0xbe0255bd	-0.12728019
126	0x3e00a248	0.12561905
127	0xbe0a0a57	-0.13480507
128	0xbe1a88f3	-0.15091304
129	0x3d6a1c7f	0.057156082
130	0xbcbfdd4d	-0.023420954
131	0xbe4254a6	-0.18977603
132	0xbe329f7d	-0.17443652
133	0xbe165674	-0.14681417
134	0xbe4b8095	-0.19873269
135	0x3cb9a44d	0.022661353
136	0x3e273336	0.16328129
137	0xbd9b3dba	-0.07580133
138	0xbbc45ea8	-0.005992729
139	0xbe4d30cf	-0.2003815
140	0x3db2ab5c	0.087240905
141	0xbda237bc	-0.07920787
142	0x3dc62415	0.09674851
143	0xbdd7c060	-0.105347395
144	0xbdee9e29	-0.116512604
145	0x3e3fdf91	0.18737628
146	0xbdf8107a	-0.12112518
147	0x3dbc2887	0.091874175
148	0xbd584063	-0.05279578
149	0xbcfd6493	-0.030931747
150	0xbe1905d6	-0.14943632
151	0x3e0fb78a	0.14034858
152	0xbc9d0d09	-0.019171255
153	0xbdc6a46c	-0.0969933
154	0xbd22b051	-0.03971893
155	0x3d50c4f4	0.05096908
156	0x3dddb8cc	0.10826263
157	0x3da51aaf	0.0806173
158	0x3d9f5db9	0.07781548
159	0xbdab5fc7	-0.083678775
160	0xbc3a2c7f	-0.011363148
161	0xbdc11a42	-0.094288364
162	0x3aae0cd1	0.0013278966
163	0x3e327fb1	0.17431523
164	0xbe328fa3	-0.17437606
165	0x3d2f348c	0.042774722
166	0x3e06ab2e	0.13151237
167	0x3cd8f43b	0.026483646
168	0xbe060db3	-0.13091163
169	0xbe0eaff5	-0.1393431
170	0x3e029868	0.12753451
171	0xbd1effd2	-0.038818188
172	0xbdc13f0d	-0.09435854
173	0xbd2fd570	-0.04292816
174	0xbd4dbb06	-0.050227188
175	0x3c0d11be	0.008610187
176	0x3d90f40f	0.070778005
177	0x3badfcd7	0.005309682
178	0xbdd85423	-0.10562923
179	0xbc667ce9	-0.014067867
180	0x3de6af9f	0.11263966
181	0xbe137ac3	-0.14402299
182	0xbe2e6e27	-0.17034207
183	0xbd34e998	-0.044168085
184	0x3e16cebf	0.14727305
185	0x3e426f27	0.18987714
186	0xbce8a92f	-0.028400986
187	0x3e2f366f	0.17110609
188	0x3df13558	0.11777753
189	0xbe0eb528	-0.13936293
190	0xbdd80d07	-0.1054936
191	0xbbf5601c	-0.007488264
192	0x3e396981	0.18106653
193	0xbd9dce20	-0.07705331
194	0x3d8e3887	0.069443755
195	0xbe1b147c	-0.15144533
196	0xbde72dc8	-0.11288029
197	0xbdd9603e	-0.1061406
198	0xbd2c1937	-0.042016234
199	0x3dcacaaa	0.09901936
200	0xbe03f4ae	-0.12886307
201	0x3dcc39c3	0.09971955
202	0xbe1d9a25	-0.15390833
203	0x3d6853d6	0.056720577
204	0x3cab559d	0.020914847
205	0x3d4f094f	0.050545987
206	0xbb9f3c96	-0.0048595173
207	0x3d92fb37	0.07176822
208	0xbdd9c4fe	-0.106332764
209	0xbb821123	-0.003969328
210	0x3e41783c	0.18893522
211	0xbe0136ff	-0.12618636
212	0xbde74714	-0.11292854
213	0x3cb88e9e	0.022528943
214	0xbe253171	-0.16132142
215	0x3d052f7e	0.032515995
216	0xbc575d33	-0.013144779
217	0xbe3bb84e	-0.18332025
218	0xbb71756e	-0.0036843675
219	0x3e0c7bd9	0.13719119
220	0x3dfbd488	0.122963965
221	0x3e3745cf	0.17897724
222	0x3e405616	0.18782839
223	0xbe215382	-0.15754512
224	0x3cbc99fa	0.02302264
225	0xbbd94901	-0.006631017
226	0x3d3952ac	0.045244858
227	0xbe1d6af7	-0.15372835
228	0x3e27313d	0.16327377
229	0x3d9a87ab	0.07545408
230	0x3b84c7a8	0.004052121
231	0xbe20b5bf	-0.1569433
232	0x3e1d94df	0.15388821
233	0x3dbe1041	0.09280444
234	0xbe11066f	-0.1416261
235	0xbcd4e32c	-0.02598723
236	0xbc2f12a5	-0.010685598
237	0xbdcfed03	-0.10152628
238	0xbd14c19d	-0.036317457
239	0x3df66d4f	0.12032568
240	0xbdfe217d	-0.12408731
241	0x3e1362d5	0.1439317
242	0xbd1b57ac	-0.037925407
243	0xbe294116	-0.16528735
244	0xbe1dc728	-0.15408003
245	0x3dd01490	0.10160172
246	0x3d0ef56a	0.034902014
247	0x3d30d640	0.043173075
248	0xbdc46f3f	-0.09591531
249	0xbdeacd40	-0.114649296
250	0x3e39d525	0.18147714
251	0x3d2345a2	0.03986133
252	0x3da4fd0d	0.08056078
253	0xbe3a79b7	-0.18210493
254	0xbe072acb	-0.13199918
255	0xbe3f9959	-0.18710841

weight f4 [639, 3, 3, 3]
0	0x3c99a8fe	0.01875734
1	0xbdabae40	-0.08382845
2	0xbe3b1ad0	-0.18271947
3	0x3df9fb89	0.1220618
4	0x3d8313aa	0.06400235
5	0xbe29cfb5	-0.1658314
6	0xbc9d2c4f	-0.019186167
7	0x3d7a12d6	0.06105312
8	0x3e3e5fa3	0.1859117
9	0xbe39e218	-0.18152654
10	0xbe011e3b	-0.12609188
11	0xbca737bb	-0.020412317
12	0xbd9bde34	-0.07610741
13	0xbe2175e8	-0.15767634
14	0xbe04c7d5	-0.12966855
15	0xbda173b6	-0.07883398
16	0x3e3d13c9	0.18464579
17	0xbe3988a3	-0.18118529
18	0x3df695c5	0.12040285
19	0xbcef90d7	-0.02924387
20	0xbdb81e56	-0.08990161
21	0x3d715525	0.05891909
22	0xbe12160f	-0.14266227
23	0x3d4a7f74	0.049437955
24	0x3d411b67	0.047145274
25	0xbdfcffa6	-0.123534486
26	0xbdaafba3	-0.08348777
27	0x3d5d3fc2	0.054015882
28	0x3dc61222	0.09671427
29	0xbe00c9f7	-0.12577043
30	0x3dc12edd	0.094327666
31	0x3df4e67a	0.119580224
32	0xbdf5eaa7	-0.12007647
33	0xbe4f275b	-0.20229857
34	0xbe075d14	-0.132191
35	0x3d8167c4	0.0631862
36	0xbd90a13c	-0.07062003
37	0xbdd92a73	-0.106038
38	0xbd9c9fbe	-0.07647656
39	0x3e2d6381	0.16932489
40	0x3e1de086	0.1541768
41	0x3d963442	0.07334186
42	0x3e1e17cf	0.1543877
43	0x3df07c26	0.117424294
44	0x3e1421d1	0.14466025
45	0x3c7d1b39	0.015448385
46	0xbdb53732	-0.08848418
47	0xbdf204cb	-0.118173204
48	0xbd34172f	-0.043967422
49	0x3e1744c7	0.1477233
50	0xbde730d2	-0.112886086
51	0x3dbfb0cf	0.093598954
52	0x3dbd1f5d	0.09234498
53	0x3e00503c	0.12530607
54	0xbe2a688c	-0.16641444
55	0x3dcab081	0.09896947
56	0xbd9fc88f	-0.078019254
57	0xbd4079ed	-0.046991277
58	0xbdd62892	-0.10456957
59	0xbdfa99d0	-0.12236369
60	0xbd8ba91b	-0.06819364
61	0x3a90ee7e	0.0011057404
62	0xbd78ba67	-0.060724642
63	0xbe2ecc86	-0.17070207
64	0xbd143d4f	-0.03619128
65	0xbdd693a9	-0.10477383
66	0x3e2ae2da	0.166881
67	0x3d92eafa	0.071737245
68	0x3d6dc1f1	0.058046285
69	0x3ddfbe8c	0.10925016
70	0xbd979436	-0.07401316
71	0x3e1c4cfa	0.15263739
72	0xbe1dade4	-0.15398365
73	0x3db534c2	0.088479534
74	0x3dc700e1	0.097169645
75	0xbe4fde11	-0.20299555
76	0xbca3db9f	-0.020002184
77	0x3e002762	0.12515023
78	0x3e030afc	0.12797159
79	0xbe072961	-0.13199379
80	0x3cae84de	0.02130359
81	0x3c88cde6	0.016699743
82	0xbe406b5d	-0.18790956
83	0xbde2b19f	-0.11069035
84	0xbe2b87d8	-0.16751039
85	0xbe483dc8	-0.19554818
86	0xbe492929	-0.19644608
87	0xbdf72ba0	-0.12068868
88	0x3d784ee9	0.06062213
89	0xbdbaaf95	-0.09115521
90	0x3d2d72aa	0.04234568
91	0xbe039ff8	-0.12853992
92	0x3bf7d343	0.007563026
93	0x3d820d29	0.06350166
94	0xbe367d3f	-0.17821215
95	0xbe0c3d82	-0.13695338
96	0x3d90db16	0.07073037
97	0xbe39586d	-0.18100138
98	0xbe15c591	-0.14626147
99	0x3c35f091	0.011104719
100	0x3e1de987	0.15421115
101	0xbe051171	-0.12994935
102	0x3cfad249	0.03061785
103	0xbc5c1b87	-0.013434297
104	0xbe42264b	-0.1895992
105	0x3db1ea65	0.08687285
106	0xbe422ad4	-0.1896165
107	0xbdbd0b61	-0.09230686
108	0xbd6081f7	-0.054811444
109	0x3d97ad2f	0.07406079
110	0xbd85ea52	-0.06538834
111	0x3bd9f860	0.006651923
112	0x3d3b5d13	0.04574306
113	0x3d527ce7	0.051388647
114	0xbdb1399e	-0.08653568
115	0xbe08fc12	-0.13377407
116	0xbe39802a	-0.18115297
117	0xbe3422cb	-0.17591397
118	0x3df138fb	0.11778446
119	0x3d4d62c6	0.050143026
120	0xbe0421f8	-0.12903583
121	0xbe46bb30	-0.19407344
122	0xbe0a63ff	-0.13514708
123	0xbe4f30c0	-0.2023344
124	0xbe31000b	-0.17285173
125	0x3daf5881	0.08561803
126	0x3c08552c	0.008321088
127	0xbe4a8edc	-0.19781059
128	0x3e2709ba	0.16312304
129	0xbdc0812b	-0.09399637
130	0x3ce06a5a	0.027394462
131	0x3e0f3b14	0.1398738
132	0x3d8af0c2	0.06784202
133	0xbde363ce	-0.111030206
134	0xbd5ee02e	-0.054413013
135	0x3dba86c7	0.09107738
136	0x3e1bb9b1	0.15207554
137	0x3d2189e7	0.039438155
138	0x3e0c2f85	0.13690002
139	0x3d6c20a7	0.057648327
140	0x3da9f8e9	0.08299429
141	0xbe48a4fb	-0.19594185
142	0x3d220280	0.039553165
143	0xbe3f0baf	-0.186568
144	0xbcba1cf0	-0.022718877
145	0xbd90cdc2	-0.07070495
146	0xbe2d2a5f	-0.16910695
147	0xbe30720c	-0.17231005
148	0xbd162bac	-0.036662742
149	0x3e0b0cea	0.13579145
150	0xbe1ae4c7	-0.15126334
151	0xbe10f7f1	-0.14157082
152	0x3d83badc	0.06432125
153	0xbcc803d2	-0.024415884
154	0x3c88b2ed	0.016686881
155	0x3e327d7e	0.17430684
156	0x3e06b88f	0.13156341
157	0x3d71c3f1	0.059024755
158	0xbd2f5094	-0.042801455
159	0xbc629cd0	-0.013831332
160	0xbe3c1cc0	-0.18370342
161	0xbdad8176	-0.08471958
162	0x3da0cc69	0.07851488
163	0xbda5fa03	-0.081043266
164	0x3e110874	0.14163381
165	0xbccd9a0a	-0.025097866
166	0xbd360bf0	-0.04444498
167	0x3e023fda	0.1271967
168	0xbe44be9a	-0.19213334
169	0x3cc76a94	0.024342813
170	0x3d729cad	0.05923145
171	0x3de4550e	0.111490354
172	0x399b5516	0.00029627298
173	0xbd867bfc	-0.06566617
174	0xbe3da453	-0.18519716
175	0xbdcaae7d	-0.09896562
176	0xbe21b6dd	-0.15792413
177	0x3e310d96	0.17290339
178	0x3d729244	0.05922152
179	0x3da9891b	0.08278104
180	0xbe40f8a7	-0.18844853
181	0x3df81aee	0.121145114
182	0x3e330845	0.17483623
183	0x3e083559	0.133016
184	0xbd731b63	-0.05935229
185	0x3d3098ce	0.043114476
186	0x3cdfeaae	0.027333584
187	0x3d5cf9e0	0.053949237
188	0x3b2941b3	0.0025826513
189	0x3b38cb35	0.0028197293
190	0x3e175bae	0.14781067
191	0xbd695f83	-0.056975853
192	0xbda196fc	-0.07890126
193	0x3db8bd87	0.090205245
194	0x3ddfb8c7	0.10923915
195	0xbd8a3c7b	-0.06749817
196	0xbc922cdd	-0.017843658
197	0x3cf4f2a0	0.029900849
198	0xbe3a5bac	-0.18199033
199	0x3e12fc24	0.14353997
200	0xbdf086e5	-0.11744479
201	0xbd42c798	-0.04755363
202	0x3e0a54b2	0.13508871
203	0x3e38d97b	0.18051712
204	0x3dfac5d0	0.12244761
205	0xbe13dc79	-0.14439572
206	0xbcedaadd	-0.029012138
207	0x3da3c5b4	0.07996693
208	0x3d3615d9	0.04445443
209	0x3dea7653	0.1144835
210	0xbe3ad1d8	-0.18244112
211	0x3ccc45c7	0.024935616
212	0x3e1d3b80	0.15354729
213	0xbde24ebc	-0.11050174
214	0xbdce7940	-0.1008172
215	0x3decd7b1	0.11564577
216	0xbd2b9669	-0.04189149
217	0xbe298043	-0.16552834
218	0x3e154ba5	0.14579637
219	0x3d34a09f	0.044098493
220	0x3ce19278	0.027535662
221	0x3d012c85	0.031536598
222	0x3def9014	0.116974026
223	0x3dc6800d	0.096923925
224	0xbe3bd8de	-0.18344447
225	0xbcac1297	-0.021004958
226	0x3da55a79	0.08073897
227	0x3d1bf940	0.0380795
228	0x3d5bbf7c	0.05364941
229	0x3e20b345	0.15693386
230	0xbdc1e53d	-0.09467552
231	0x3d81f813	0.063461445
232	0x3d6376e2	0.055533297
233	0xbdee09cb	-0.116229616
234	0x3e38bde0	0.18041182
235	0x3bfee466	0.007778692
236	0x3d8675a8	0.0656541
237	0x3db0bf51	0.08630241
238	0xbe3cfff4	-0.18457013
239	0x3e1ca365	0.15296705
240	0x3ce8abd3	0.028402245
241	0xbd798cac	-0.06092517
242	0xbe41e19a	-0.18933716
243	0x3d6c88a8	0.057747513
244	0xbe056ec4	-0.13030535
245	0xbdf85482	-0.121254936
246	0x3dd3054f	0.10303747
247	0x3dd05b9a	0.101737216
248	0x3e367f6c	0.17822045
249	0xbc098fb9	-0.008396083
250	0xbe3d2c10	-0.1847384
251	0x3dab8465	0.08374862
252	0x3dee3422	0.11631037
253	0x3d3c68d1	0.0459984
254	0xbe16235f	-0.1466193
255	0xbe0e3ffa	-0.13891593

bias f4 [639]
0	0xbe39269a	-0.18081132
1	0x3e2fe101	0.17175676
2	0xbd688e22	-0.056776173
3	0xbe1b02ae	-0.15137741
4	0x3da18f9a	0.07888718
5	0x3da83524	0.08213261
6	0x3db84e45	0.08999304
7	0xbdc4c5b5	-0.09608022
8	0xbc987487	-0.018610252
9	0x3e0ffe0b	0.14061753
10	0xbd016382	-0.03158904
11	0xbe1d5435	-0.15364154
12	0x3d8a9318	0.06766337
13	0x3e32602a	0.17419496
14	0x3dcb7704	0.0993481
15	0xbde61ea2	-0.112363115
16	0x3da51008	0.08059698
17	0x3e1e9bd4	0.15489131
18	0xbc4d5f28	-0.012534894
19	0x3be68cb1	0.0070358147
20	0xbdcf460a	-0.10120781
21	0x3e0924b0	0.13392901
22	0xbe12f682	-0.14351848
23	0xbdffbe11	-0.12487424
24	0xbd2a9bdd	-0.04165255
25	0xbe25ea8b	-0.16202752
26	0xbdc3acd1	-0.095544465
27	0x3e138925	0.14407785
28	0xbe3b6e23	-0.18303733
29	0xbe4b116b	-0.19830863
30	0x3c8014cb	0.015634915
31	0xbc29b2a7	-0.010357535
32	0xbe05a980	-0.1305294
33	0xbe4464c1	-0.1917906
34	0xbe0942f4	-0.13404447
35	0xbe41e920	-0.18936586
36	0x3c92b52e	0.017908659
37	0x3e3b4c18	0.18290746
38	0x3e2fcecc	0.1716873
39	0x3d8fc49d	0.07019923
40	0x3e0516cb	0.12996976
41	0x3e344daa	0.17607751
42	0x3e160d2b	0.1465346
43	0xbe0e290a	-0.13882843
44	0xbda147eb	-0.078750454
45	0xbd4c7bf4	-0.0499229
46	0x3e1f6e83	0.155695
47	0xbdf64424	-0.120247155
48	0xbe477448	-0.19477952
49	0xbdbb4a92	-0.091450825
50	0x3d5893b7	0.052875247
51	0x3bedfeb7	0.0072630304
52	0xbd77aed4	-0.060469463
53	0xbd921e25	-0.07134656
54	0xbd59ca94	-0.05317171
55	0xbd4be42d	-0.049778152
56	0x3dab2db2	0.08358325
57	0x3d2ae375	0.041720826
58	0x3dcf0caa	0.10109837
59	0x3da6eebe	0.08151005
60	0xbdacdfc6	-0.08441119
61	0xbd642aee	-0.055705003
62	0x3d7dd354	0.061969116
63	0x3d8cf807	0.06883245
64	0xbd0e3539	-0.034718726
65	0xbd9a0b99	-0.07521743
66	0xbe20eea7	-0.15716039
67	0xbd6725ff	-0.05643272
68	0xbe129349	-0.14313997
69	0xbd49aee7	-0.049239065
70	0x3e19c170	0.15015197
71	0xbe2e0dfb	-0.1699752
72	0xbdcaff32	-0.09911956
73	0x3e0395f9	0.12850179
74	0xbc596cb2	-0.013270544
75	0xbdc05415	-0.093910374
76	0xbe0f59b3	-0.13999061
77	0xbdf16877	-0.11787503
78	0xbe227854	-0.15866214
79	0x3dfcd270	0.12344825
80	0x3e2b3952	0.16721085
81	0x3e1f9f9f	0.15588234
82	0x3dde5e27	0.10857802
83	0xbdc82f33	-0.097746275
84	0xbd3b30db	-0.04570089
85	0x3d79cb7f	0.060985085
86	0x3df2d307	0.118566565
87	0x3d93211b	0.07184049
88	0xbd985ba9	-0.07439358
89	0xbe0050a3	-0.1253076
90	0xbacba84b	-0.0015537826
91	0x3d4703ce	0.048587613
92	0xbda6ad55	-0.08138529
93	0xbdf9d98f	-0.12199699
94	0xbcfa69cb	-0.030568024
95	0xbd4fe0ec	-0.05075161
96	0x3e1d17f1	0.15341164
97	0xbe146a49	-0.1449367
98	0x3df3ee3e	0.119106755
99	0xbc8cfd83	-0.017210728
100	0x3d9f43ff	0.07776641
101	0x3dde1a4d	0.1084486
102	0xbd16c44c	-0.036808297
103	0xbe3d7b3e	-0.18504044
104	0xbc467c40	-0.012114584
105	0xbd5b2693	-0.053503584
106	0xbe189e4d	-0.14904137
107	0xbe378fb8	-0.17925918
108	0x3d3da055	0.046295483
109	0xbe0ad3fa	-0.13557425
110	0xbe070300	-0.13184738
111	0xbd9652fb	-0.07340046
112	0x3dede055	0.116150536
113	0xbc2790a5	-0.010227357
114	0x3bd67c5e	0.0065455874
115	0x3e275f34	0.16344911
116	0xbe0c9f75	-0.13732703
117	0x3dfa2087	0.12213235
118	0x3ceeb710	0.029140025
119	0xbc5fbb07	-0.013655431
120	0xbcc58491	-0.024111064
121	0xbd660710	-0.05615908
122	0x3e124b9c	0.14286655
123	0xbc44db1f	-0.012015133
124	0xbdc6b122	-0.09701754
125	0xbdb2f23b	-0.08737608
126	0x3dc68996	0.09694211
127	0x3d15e7f0	0.036598146
128	0x3ccb7d5b	0.024840048
129	0xbdc9c88d	-0.09852705
130	0x3dbf78e2	0.093492284
131	0x3c9c69bf	0.019093392
132	0x3e32f072	0.17474535
133	0xbe3f4da2	-0.18681958
134	0xbe168e8e	-0.14702818
135	0xbe1621aa	-0.1466128
136	0x3e2cdd88	0.16881382
137	0x3d140aa5	0.036142964
138	0xbd8f1fd3	-0.06988492
139	0xbdaa6b1e	-0.08321212
140	0x3db0130a	0.085973814
141	0xbd9d070d	-0.076673605
142	0xbcaac09f	-0.020843802
143	0xbe45425d	-0.19263597
144	0xbe509202	-0.20368198
145	0xbcabfef6	-0.020995598
146	0xbdd230d8	-0.102632225
147	0x3d2b25bf	0.041784044
148	0xbda361ff	-0.07977676
149	0x3d5d5b9c	0.054042444
150	0x3e059d32	0.13048247
151	0x3c9195e2	0.017771665
152	0xbd495894	-0.04915674
153	0xbcde5c4c	-0.02714362
154	0x3e2a8891	0.16653658
155	0x3e03b02f	0.12860177
156	0xbe275053	-0.16339235
157	0x3e0df7e3	0.13864093
158	0xbd3bd2a9	-0.045855198
159	0xbe1a5b99	-0.15074004
160	0xb9edf6ac	-0.00045387947
161	0x3d36ff76	0.04467722
162	0xbe3f73e9	-0.1869656
163	0x3d3ed83e	0.046592943
164	0xbe13e01d	-0.14440961
165	0xbbcf7a85	-0.006331744
166	0xbd74e0ee	-0.059784822
167	0xbcfef27d	-0.031121487
168	0x3bd26bc0	0.006421536
169	0xbda66e9e	-0.08126567
170	0x3e080164	0.1328178
171	0x3e0365c0	0.12831783
172	0xbcdb8a37	-0.026799304
173	0xbbeb2cb7	-0.0071769613
174	0xbdcedb99	-0.10100479
175	0xbdfeb9fe	-0.12437819
176	0x3d73e24c	0.059541985
177	0xbdeea82f	-0.11653172
178	0x3da7fd38	0.082025945
179	0xbe0316a7	-0.1280161
180	0xbe35b576	-0.17745003
181	0x3da18baf	0.07887971
182	0xbe0abca4	-0.13548523
183	0xbda83cfe	-0.08214758
184	0x3e34320c	0.17597216
185	0x3dfd7ab7	0.123769216
186	0xbe3ba79b	-0.18325655
187	0xbdb82f7a	-0.089934304
188	0x3e267ec6	0.16259298
189	0x3caa7092	0.02080563
190	0x3d3602fa	0.044436432
191	0xbdabeae3	-0.083944105
192	0xbdbc5a16	-0.0919687
193	0xbde0a14d	-0.10968266
194	0x3dac62d3	0.08417287
195	0xbd8c736a	-0.06857951
196	0x3cb4f788	0.022090688
197	0x3dcc6300	0.0997982
198	0xbdabd780	-0.08390713
199	0x3ddc2e7a	0.10751052
200	0x3d81002f	0.06298863
201	0xbe1b8cdf	-0.15190457
202	0x3e1eff7c	0.15527147
203	0x3c98bf8f	0.01864603
204	0xbe1b9728	-0.1519438
205	0xbe0ab45a	-0.13545361
206	0xbe06cf6e	-0.13165066
207	0xbdf76240	-0.120792866
208	0x3cbeed37	0.023306472
209	0x3d93a9c7	0.07210117
210	0x3cad785b	0.021175554
211	0xbe221c05	-0.15831001
212	0xbdd6dbc7	-0.10491138
213	0xbe2bfc33	-0.16795425
214	0x3e01ebd9	0.12687625
215	0xbdbef5c2	-0.09324218
216	0x3e0b0046	0.13574323
217	0xbe23e701	-0.1600609
218	0x3e2b4818	0.1672672
219	0x3df353cd	0.11881218
220	0x3d97c853	0.07411256
221	0x3df51f27	0.119688325
222	0xbe1a7226	-0.15082607
223	0xbe2666ce	-0.16250154
224	0x3e03ba70	0.12864089
225	0x3d9a514d	0.07535038
226	0x3d368b7e	0.044566624
227	0xbe319f5f	-0.17345951
228	0xbe40c152	-0.18823746
229	0xbdb43e31	-0.088009246
230	0x3e20e5d6	0.15712675
231	0x3d0eb4d9	0.03484044
232	0xbdd87b70	-0.10570419
233	0xbdcc0ba7	-0.0996316
234	0xbdc932bb	-0.09824129
235	0x3a0f4216	0.00054648647
236	0x3abff996	0.0014646526
237	0x3cf1c06a	0.029510695
238	0x3d9a9683	0.07548239
239	0x3df6b44e	0.12046109
240	0xbdc1fab5	-0.09471647
241	0xbe319e7e	-0.17345616
242	0xbcc50afd	-0.024053091
243	0x3d27cdee	0.040967874
244	0xbe32f559	-0.17476405
245	0x3d9f6257	0.07782429
246	0xbd8950e6	-0.06704883
247	0xbd98e26e	-0.07465063
248	0x3e28e5e4	0.16493946
249	0x3e026331	0.12733151
250	0xbdd8939f	-0.105750315
251	0x3d0fec50	0.035137475
252	0x3d529a4a	0.051416673
253	0x3dff936b	0.124792896
254	0xbd33e880	-0.0439229
255	0x3c15e271	0.009148226

weight f4 [639, 3, 3, 3]
0	0x3dd6e93a	0.10493703
1	0xbdf97aad	-0.12181602
2	0x3d3f568a	0.04671339
3	0xbdf93a92	-0.121693745
4	0xbccce789	-0.025012748
5	0x3d125066	0.035721205
6	0xbcf0144c	-0.029306553
7	0xbd158fac	-0.03651397
8	0x3dc55230	0.09634817
9	0x3ce7ce2d	0.028296554
10	0x3e2041f3	0.15650158
11	0x3de0fa6b	0.109852634
12	0xbe0bb786	-0.13644227
13	0x3da6f395	0.08151928
14	0x3db3a6ac	0.087720245
15	0xbe40007f	-0.18750189
16	0xbe4cf26f	-0.20014356
17	0xbddd2608	-0.107982695
18	0xbe20a954	-0.15689594
19	0xbd0be5d0	-0.034154713
20	0x3e091023	0.13385062
21	0x3e322484	0.17396742
22	0xbd7dd00b	-0.061965983
23	0x3b267a6c	0.002540256
24	0x3d32bbde	0.043636195
25	0x3d9c0dea	0.076198414
26	0x3d2a1ee8	0.04153338
27	0xbe15d4a6	-0.146319
28	0x3d1aabc8	0.03776148
29	0x3dfcb2ae	0.12338768
30	0x3e289b63	0.16465525
31	0xbceab998	-0.028652951
32	0xbd5a8260	-0.05334699
33	0x3e2ca45f	0.16859578
34	0x3e0a0cbf	0.13481425
35	0xbe42daab	-0.19028728
36	0xbd12bde5	-0.03582563
37	0xbdce99dd	-0.10087941
38	0xbca4c600	-0.020113945
39	0xbd3a45ad	-0.045476604
40	0x3e0d661f	0.13808487
41	0x3d0ae513	0.03390987
42	0xbe24c40d	-0.16090412
43	0xbdce4098	-0.10070914
44	0xbe1b820d	-0.15186329
45	0xbd26aec1	-0.040694002
46	0xbe420dbb	-0.1895055
47	0x3d4d10f6	0.050065003
48	0xbdf04098	-0.1173107
49	0xbd032861	-0.03202093
50	0xbc0f577b	-0.008748884
51	0xbe338dcf	-0.17534564
52	0xbe4cb187	-0.19989596
53	0xbd0b4b34	-0.034007266
54	0x3e2b7601	0.16744234
55	0x3d0b24cf	0.03397065
56	0xbcea6777	-0.028613789
57	0x3d6fba36	0.058527194
58	0xbe503b2c	-0.20335072
59	0xbe0f69e8	-0.14005244
60	0x3e1c768a	0.15279594
61	0xbded197d	-0.11577127
62	0xbcbc1402	-0.02295876
63	0xbe45826b	-0.19288032
64	0x3dca0f04	0.09866145
65	0x3d8c7dfc	0.06859967
66	0x3cb2dd93	0.02183417
67	0xbe32adb6	-0.17449078
68	0x3da1f203	0.07907488
69	0x3e224568	0.15846789
70	0xbe0e5110	-0.1389811
71	0xbdebe655	-0.11518542
72	0x3d60627d	0.054781426
73	0x3ddcea02	0.10786821
74	0xbd14da8a	-0.036341228
75	0x3c9569dc	0.018238954
76	0xbe09fb3a	-0.13474742
77	0xbdda480e	-0.106582746
78	0xbdbb6824	-0.091507226
79	0x3c012219	0.007881665
80	0x3e08f3c7	0.13374244
81	0xbd4f157d	-0.050557602
82	0x3de1bd88	0.11022478
83	0x3dcc4624	0.09974316
84	0xbd8dbf97	-0.069213085
85	0xbdf9481b	-0.12171956
86	0x3e0162b9	0.12635316
87	0xbe28ee0d	-0.16497059
88	0x3de42c75	0.11141292
89	0x3dbb5a22	0.09148051
90	0x3e3067a2	0.17227033
91	0x3dd276eb	0.10276588
92	0xbdd8f343	-0.105932735
93	0xbc8c5be9	-0.01713367
94	0xbdd37a5a	-0.10326071
95	0x3e3346dd	0.17507501
96	0x3dde0da8	0.108424485
97	0x3cfc44c9	0.030794518
98	0xbb7eff6c	-0.0038909568
99	0xbdbd4c20	-0.09243035
100	0x3d002a62	0.03129042
101	0xbdb48dd3	-0.08816113
102	0x3e06e028	0.13171446
103	0xbbdf7e9d	-0.0068205134
104	0xbe3306db	-0.17483084
105	0x3c9b9cd9	0.01899569
106	0xbe345f43	-0.17614464
107	0x3e14e165	0.14539106
108	0x3e12a53a	0.14320841
109	0xbdeb925c	-0.11502525
110	0x3dd07fd7	0.101806335
111	0xbdf4f3a1	-0.11960531
112	0x3db121dd	0.08649037
113	0xbe4b82c1	-0.19874097
114	0xbdfec0c5	-0.124391116
115	0xbe2f6316	-0.17127642
116	0x3df583e0	0.11988044
117	0x3dc4e957	0.096148185
118	0x3d79b384	0.060962215
119	0xbe1940f9	-0.14966191
120	0x3dc22760	0.094801664
121	0x3de0a459	0.10968847
122	0xbd85c720	-0.06532121
123	0x3db09f52	0.08624138
124	0x3db84b6f	0.08998763
125	0xbdaf4b8e	-0.08559333
126	0x3e39bac4	0.18137652
127	0xbd132a81	-0.035929207
128	0xbe4d6766	-0.20058975
129	0x3cb4e2a6	0.02208073
130	0x3e392383	0.18079953
131	0x3d09497c	0.033517346
132	0xbccdc0f0	-0.025116414
133	0xbde2efac	-0.1108087
134	0xbdcf41d0	-0.101199746
135	0xbd9fe86f	-0.07808005
136	0x3e350e85	0.1768132
137	0x3de16d1c	0.11007139
138	0x3df1edba	0.11812921
139	0xbd7b3ecf	-0.061339196
140	0x3e12d86e	0.14340374
141	0x3e306c79	0.17228879
142	0xbdb0f5f6	-0.08640663
143	0xbce94bfe	-0.028478619
144	0xbcec2ef6	-0.028830986
145	0x3e0cedab	0.13762538
146	0x3d166e7a	0.036726452
147	0xbd4af9d8	-0.049554676
148	0xbe32a0fa	-0.1744422
149	0xbd0caa5f	-0.034342166
150	0x3d4c55ac	0.04988639
151	0x3e13d0b6	0.14435086
152	0x3dea5793	0.11442485
153	0x3dcc07fb	0.0996246
154	0x3da2fa0f	0.07957851
155	0xbe002fe6	-0.12518272
156	0xbddbdde7	-0.10735684
157	0xbe266c2a	-0.16252199
158	0x3d90dea7	0.070737176
159	0xbbc9b8ef	-0.006156079
160	0xbde238cb	-0.11045989
161	0xbd8c87e1	-0.06861854
162	0xbe1995e4	-0.14998585
163	0x3da00b83	0.07814696
164	0xbe318ab6	-0.1733807
165	0xbb895aa7	-0.004191715
166	0xbdc882d7	-0.09790581
167	0x3ddab94d	0.106798746
168	0x3c65fc69	0.01403723
169	0xbe034473	-0.1281908
170	0x3d36363c	0.044485316
171	0x3da78625	0.08179883
172	0x3e38fed1	0.18065955
173	0x3e0f9dfc	0.1402511
174	0x3dbfa875	0.093583025
175	0x3db1d8f8	0.08683962
176	0xbdd30977	-0.1030454
177	0x3e31351f	0.1730542
178	0x3e07960d	0.13240834
179	0xbe369cae	-0.17833206
180	0xbe4b1efb	-0.19836037
181	0xbe485fe1	-0.19567825
182	0x3bb4b475	0.005514676
183	0xbe13654b	-0.14394109
184	0xbdfafdf9	-0.12255473
185	0x3dbf6b62	0.093466535
186	0xbddd5890	-0.108079076
187	0xbcc5d6d0	-0.024150282
188	0xbdc4f314	-0.09616676
189	0x3c11348c	0.008862626
190	0x3e1a0f3e	0.15044877
191	0x3dcd9580	0.100382805
192	0xbd2abadb	-0.041682106
193	0xbd50ea9c	-0.05100499
194	0x3dbf004c	0.093262285
195	0xbe2e83c0	-0.17042446
196	0x3e290103	0.16504292
197	0x3d3529f4	0.044229463
198	0xbd9570c6	-0.072969005
199	0xbdc46222	-0.0958903
200	0xbdab57be	-0.08366345
201	0xbbfad14e	-0.0076543456
202	0xbd42588b	-0.047447722
203	0x3e0f32ec	0.13984269
204	0x3de2cccb	0.110742174
205	0xbe3a2198	-0.18176877
206	0x3b4c6698	0.003118908
207	0x3b765dfc	0.003759264
208	0xbd514414	-0.051090315
209	0x3d03b9ae	0.0321595
210	0xbda62fbd	-0.08114574
211	0x3b34fc2a	0.0027616122
212	0x3dd9e4b9	0.106393285
213	0x3de129ca	0.10994299
214	0xbd4a92d8	-0.049456447
215	0xb987f974	-0.00025935064
216	0xbe350d36	-0.17680821
217	0xbde9d9f3	-0.11418524
218	0xba678300	-0.0008831471
219	0xbdb29619	-0.08720035
220	0x3e1197e6	0.14218101
221	0xbdca7107	-0.098848395
222	0x3df030ee	0.117280826
223	0x3bb9e037	0.0056724804
224	0xbe068382	-0.13136104
225	0xbc92a19c	-0.017899327
226	0xbd9027ad	-0.070388176
227	0x3b380b63	0.002808296
228	0xbd8a5e14	-0.06756225
229	0xbdcc5e35	-0.09978906
230	0xbd23715e	-0.039903037
231	0xbe3a2a3e	-0.18180177
232	0x3e29c9dd	0.16580911
233	0xbd91ac5a	-0.071129516
234	0x3c87c36f	0.016572682
235	0x3cec4829	0.028843002
236	0x3d946659	0.07246084
237	0xbde61299	-0.11234016
238	0xbe01d654	-0.12679416
239	0x3e0e4aae	0.13895676
240	0x3dd514bb	0.10404345
241	0xbcb645d2	-0.02225009
242	0x3d76dbae	0.060268097
243	0xbd9025dd	-0.07038472
244	0xbe17cde2	-0.14824632
245	0x3d86811b	0.06567594
246	0x3dd15a72	0.10222329
247	0xbe3f9a6c	-0.18711251
248	0x3beedfa1	0.0072898422
249	0xbe1c9d39	-0.1529435
250	0xbe0345c5	-0.12819584
251	0x3c238c5e	0.009982197
252	0x3ddc258b	0.10749348
253	0xbc6e2339	-0.014534765
254	0x3e092772	0.13393953
255	0x3ceae0fa	0.02867173

bias f4 [639]
0	0x3e31aa82	0.173502
1	0xbd940512	-0.072275296
2	0xbe40e914	-0.18838912
3	0xbe1747ae	-0.14773437
4	0x3c79a575	0.015237202
5	0x3dbd9012	0.09255995
6	0xbdbe4c7e	-0.092919335
7	0x3dd9a37d	0.10626886
8	0xbdbabe11	-0.091182835
9	0xbe24ea5b	-0.16105025
10	0x3de7d718	0.11320323
11	0xbe082f28	-0.13299239
12	0x3d8b9868	0.068161786
13	0xba47f312	-0.0007627468
14	0x3d1f0a79	0.038828347
15	0xbd4cfb50	-0.050044358
16	0x3e1953c2	0.14973357
17	0x3dcdaa40	0.10042238
18	0xbd4b75b4	-0.049672797
19	0xbdd30e65	-0.1030548
20	0xbe137760	-0.14401007
21	0x3e14926e	0.14508983
22	0x3e285aea	0.16440931
23	0xbe33793d	-0.17526717
24	0xbe4fb910	-0.2028544
25	0x3e292a81	0.1652012
26	0x3d3debc6	0.04636743
27	0xbe50cb8a	-0.20390144
28	0xbdea887a	-0.11451812
29	0x3d0b19f4	0.033960298
30	0xbcfe8097	-0.031067176
31	0x3df619ac	0.12016615
32	0x3d05d6e1	0.032675628
33	0xbd8eb6d9	-0.06968469
34	0x3e00c808	0.12576306
35	0x3dc954d4	0.09830633
36	0x3e2216fb	0.15829079
37	0x3daa3ec3	0.08312752
38	0xbe263154	-0.16229755
39	0x3de257c2	0.11051895
40	0x3d8dcf5c	0.06924316
41	0x3e0ae9d0	0.13565755
42	0x3cfd3716	0.030910056
43	0x3def11df	0.116733305
44	0x3b54907a	0.0032434748
45	0x3d57d4ab	0.05269305
46	0x3c9c4d0d	0.01907971
47	0x3dae4d75	0.085108675
48	0x3d544390	0.051822245
49	0x3d31394f	0.043267544
50	0xbe3a1068	-0.18170321
51	0x3dcff9f6	0.10155098
52	0xbdec6a93	-0.11543765
53	0x3d92240a	0.0713578
54	0xbe307e35	-0.17235644
55	0x3d23694c	0.03989534
56	0x3d7ee80a	0.06223301
57	0x3e080be6	0.13285789
58	0xbaf9480b	-0.0019018663
59	0x3dc846c2	0.09779121
60	0xbd5affe7	-0.053466704
61	0x3e015969	0.12631764
62	0x3e09a167	0.13440476
63	0xbe4f0cb4	-0.2021969
64	0xbd06cdca	-0.0329111
65	0xbe2b6197	-0.16736446
66	0xbd7bf74a	-0.06151513
67	0xbe4db885	-0.2008992
68	0xbe4041e7	-0.1877514
69	0xbe22768e	-0.15865538
70	0xbe501ec4	-0.20324236
71	0x3d0e35ec	0.034719393
72	0x3e22ba49	0.15891375
73	0xbdee26d5	-0.116285
74	0x3dc4039c	0.09571001
75	0x3d49f91d	0.04930984
76	0xbd86a7d4	-0.065749794
77	0x3d42b883	0.047539245
78	0xbe40cd28	-0.18828261
79	0x3cceaf04	0.025229938
80	0x3e228bf1	0.15873696
81	0xbe11c06c	-0.1423356
82	0x3e22056d	0.15822382
83	0xbe05f360	-0.13081121
84	0xbe1bbc97	-0.1520866
85	0x3e10828f	0.14112304
86	0xbe38f98f	-0.18063949
87	0xbd87c457	-0.06629246
88	0x3dbb3e3b	0.09142729
89	0x3dd62374	0.10455981
90	0x3e3455c0	0.17610836
91	0xbdc378a4	-0.09544495
92	0x3e1e2e8f	0.15447448
93	0x3e0b9c55	0.13633855
94	0xbe0d5ede	-0.1380572
95	0xbdbca293	-0.09210696
96	0x3ced78b0	0.028988212
97	0x3e254365	0.1613899
98	0x3c2cb69a	0.0105415825
99	0xbe2eeb82	-0.17082027
100	0xbddfc971	-0.10927094
101	0xbdb27907	-0.087144904
102	0xbe200bb2	-0.15629461
103	0xbdc3f9aa	-0.09569104
104	0xbd97c6d2	-0.07410969
105	0xbc39466a	-0.011308292
106	0x3e21deb3	0.1580761
107	0x3dbf81a3	0.09350898
108	0xbdd2810b	-0.10278519
109	0x3d47bad5	0.04876216
110	0x3cc78de7	0.024359656
111	0x3d958182	0.07300092
112	0xbd614743	-0.0549996
113	0x3d09e6d6	0.033667408
114	0x3e054e28	0.13018095
115	0x3dea0c01	0.11428071
116	0xbe1230ca	-0.14276424
117	0xbc605906	-0.0136931
118	0xbe041e86	-0.12902269
119	0xbc68d03d	-0.014209804
120	0x3d49789a	0.04918728
121	0xbded6a4d	-0.11592541
122	0x3e01404a	0.1262218
123	0xbe2b2cf5	-0.16716368
124	0xbe2e6445	-0.17030437
125	0x3de81f08	0.11334044
126	0x3d738f23	0.059462678
127	0x3de40749	0.11134202
128	0x3d09b982	0.03362418
129	0x3dbcdb30	0.09221494
130	0x3dd66b99	0.104697414
131	0xbc5d8501	-0.01352048
132	0x3dec9092	0.11551012
133	0xbe28a13e	-0.16467759
134	0xbe3128df	-0.17300747
135	0x3dd401cf	0.103519075
136	0x3d0a1029	0.033706818
137	0xbe3d96e1	-0.18514587
138	0xbbb285b2	-0.0054480666
139	0x3d3ddf65	0.046355624
140	0xbd52ad0a	-0.051434554
141	0xbd85d2ed	-0.065343715
142	0x3de36e7f	0.1110506
143	0xbe022ec3	-0.1271315
144	0xbe3a5f63	-0.1820045
145	0x3e3025c2	0.17201903
146	0xbe30c8d3	-0.17264108
147	0x3cea4016	0.028595012
148	0xbe48edbc	-0.19621938
149	0x3d9aa946	0.075518176
150	0xbe3c4dce	-0.18389055
151	0x3e0c0a59	0.13675822
152	0xbbe98bad	-0.0071272464
153	0xbb4ede76	-0.0031565703
154	0xbe1006b0	-0.14065051
155	0x3c8afe6c	0.01696702
156	0x3d9e07df	0.07716345
157	0xbb14bb50	-0.0022694655
158	0xbe04ec5a	-0.12980786
159	0xbdd2ebe6	-0.102989
160	0xbd5a8d76	-0.053357564
161	0xbe09a939	-0.1344346
162	0xbb2dc606	-0.0026515736
163	0x3dc19d4e	0.094538316
164	0xbe480261	-0.19532157
165	0x3de8893a	0.11354299
166	0xbe2ef5d2	-0.1708596
167	0x3d470670	0.048590124
168	0xbd927ebb	-0.07153078
169	0x3e313828	0.17306578
170	0x3d2bdc24	0.04195799
171	0x3db4ae23	0.088222764
172	0xbd9a853a	-0.07544942
173	0x3e089bea	0.13340726
174	0x3cf64ffc	0.030067436
175	0xbe4c8def	-0.19976018
176	0xbe38c753	-0.18044786
177	0xbe0174e3	-0.12642245
178	0x3c2a5100	0.0103952885
179	0x3de9d9db	0.11418506
180	0x3e21ab99	0.15788116
181	0x3d6205f5	0.055181462
182	0xbc2fba2d	-0.01072554
183	0xbbd15caa	-0.0063892202
184	0x3cc2d202	0.02378178
185	0x3d94ceda	0.07266016
186	0xbd6ff011	-0.058578555
187	0xbe3f45ea	-0.18679014
188	0x3cf5ffc3	0.030029183
189	0xbda881e7	-0.08227902
190	0x3dd6aa4e	0.10481702
191	0xbe42885b	-0.18997328
192	0x3d9ce096	0.07660024
193	0xbc0c5264	-0.008564565
194	0x3e255881	0.16147043
195	0x3c90745e	0.017633613
196	0xbe12ab86	-0.14323243
197	0xbb451d4a	-0.0030077272
198	0x3d8ed257	0.06973713
199	0x3dc38f99	0.095488735
200	0xbdd56b7a	-0.1042089
201	0x3e05ce0e	0.13066885
202	0xbe25b7bc	-0.1618337
203	0x3e2b763e	0.16744325
204	0xbe311da1	-0.17296459
205	0x3e348c2f	0.17631601
206	0x3e251937	0.161229
207	0xbde5e5ed	-0.112254955
208	0x3da0dd62	0.078547254
209	0x3e36a67f	0.1783695
210	0xbcd62f23	-0.026145523
211	0xbe3add9c	-0.182486
212	0x3d2327aa	0.03983275
213	0xbdcdabaf	-0.10042512
214	0xbdbec8a8	-0.09315616
215	0xbdb649a6	-0.08900766
216	0xbce70136	-0.02819882
217	0xbe08050f	-0.1328318
218	0xbb86c93f	-0.004113346
219	0x3e1e694d	0.15469857
220	0xbd23f6bf	-0.040030237
221	0xbd12e1a3	-0.035859715
222	0xbe2ff848	-0.17184556
223	0x3d06cb7d	0.032908905
224	0xbe1d0ae6	-0.15336189
225	0x3d2ea6f2	0.04263968
226	0x3e1b11f1	0.15143563
227	0x3df8ccba	0.121484235
228	0x3e173def	0.1476972
229	0x3db1a88c	0.08674726
230	0x3d9be8c4	0.07612756
231	0xbb31d5a0	-0.0027135387
232	0x3e05bedd	0.1306109
233	0xbe218899	-0.15774764
234	0x3d3cca3c	0.046091303
235	0x3e1ed435	0.15510638
236	0xbd8e9a32	-0.06963004
237	0x3b8e741a	0.0043473365
238	0xbdf6ef05	-0.12057308
239	0x3e18c242	0.14917853
240	0xbe167775	-0.14694007
241	0xbd57b74d	-0.052665044
242	0xbe4ec84f	-0.20193599
243	0x3d4daf63	0.05021609
244	0x3e29de1b	0.16588633
245	0x3ca62f6c	0.020286284
246	0xbdcbf0eb	-0.09958061
247	0x3e323756	0.17403921
248	0x3c54c7a2	0.012987049
249	0xbdd3a373	-0.1033391
250	0xbdc6c1e7	-0.09704953
251	0xbe0d4292	-0.13794926
252	0x3d94eef2	0.07272138
253	0xbdce282b	-0.10066255
254	0x3dd36750	0.1032244
255	0xbe4823e7	-0.19544946
