mlruns/0/c6545131f8234eb29849e56518d1b703/artifacts/model/data/model.pth (torch, 218548 bytes, 6 tensors)

weight f4 [639, 3, 3, 3]
000000 c1 54 33 be 28 b3 bf bc 9a f2 a5 bd 2c ff 2b 3e
       -0.175128 -0.023400858 -0.08102913 0.16796559
000010 07 fc 1d 3e c6 47 1b 3e 34 8f 52 3d f6 e4 33 bd
       0.15428172 0.15164098 0.0514061 -0.043919526
000020 04 f1 d7 bd bd 05 1f 3c d4 d4 9a 3c 60 f2 44 3e
       -0.10544017 0.009705958 0.018900312 0.19233084
000030 80 cd 42 be b3 1f ca bd 45 d8 99 3c 51 e4 96 3d
       -0.19023705 -0.098693274 0.018779883 0.07367767
000040 78 02 fd 3d af 10 04 be 7b de c2 3d d6 f7 10 bd
       0.123539865 -0.1289699 0.09515091 -0.035392605
000050 50 60 25 3e 56 6d 8f 3d 29 bf a8 bb d1 92 eb bd
       0.16150022 0.07003276 -0.005149741 -0.115026124
000060 b7 61 b8 bd 58 81 a6 3d fb 8d d7 3d 43 cd 13 3e
       -0.090030126 0.08130139 0.105251275 0.1443377
000070 ca d3 2f 3e a4 08 9e bd 88 16 02 3e 5f d6 0d be
       0.17170635 -0.07716492 0.12703907 -0.13851307
000080 aa 43 e4 3d 14 71 31 bd 11 bf 78 bd d2 1f fd 3d
       0.111457184 -0.04332073 -0.06072909 0.12359585
000090 5c 2e 8a bd 4f 1e 1d bd fe 40 55 bd d2 53 74 bb
       -0.067471236 -0.038358983 -0.052063935 -0.0037281406
0000a0 fd 0f d3 3d 97 3d 25 3e b1 6a 29 3e 49 6f 17 3e
       0.10305784 0.16136776 0.16544606 0.14788546
0000b0 81 90 40 3e 27 f9 16 be 56 fd 36 bc 5d 30 ab bd
       0.18805124 -0.14743482 -0.011168798 -0.08358834
0000c0 cf ad 98 bd 9e af 08 be ea f2 c7 bc bc 17 a5 3d
       -0.07455026 -0.13348243 -0.024407823 0.080611676
0000d0 48 37 16 3d f0 9d a9 3d 92 24 c7 bd 2d bd ed 3d
       0.036673814 0.08282077 -0.09723772 0.11608348
0000e0 00 51 03 3e 9a 61 e7 bd 1b 5f 2c 3e fd a8 14 be
       0.12823868 -0.11297913 0.16833155 -0.14517589
0000f0 de c8 a4 bd bf a0 1b 3e 64 fe 92 3d 19 3d 52 3d
       -0.08046125 0.15198039 0.071774274 0.0513278
000100 e3 9c 9c bd 92 8c df 3d a8 4e a7 bd 76 30 a8 bd
       -0.07647111 0.109154835 -0.08169299 -0.08212368
000110 23 97 34 be f1 ad 3a be ba 39 03 be be 97 01 be
       -0.17635779 -0.18230416 -0.1281499 -0.12655541
000120 a7 e0 aa 3d cf 23 da bd 8c 3d 1f ba 8f dc a6 bd
       0.0834363 -0.10651361 -0.000607454 -0.08147537
000130 cb 9e cd bd cc 03 12 3d 62 56 d4 bd c3 3c 11 3e
       -0.10040053 0.035648152 -0.10368039 0.14183335
000140 9f 5c 36 3e c7 cb 39 be 95 1b 1f be 70 78 f8 bd
       0.1780877 -0.18144141 -0.15537865 -0.12132347
000150 25 a9 30 3e 74 88 42 be b2 c7 03 3e af fa f7 3d
       0.17252024 -0.18997365 0.12869146 0.12108361
000160 25 56 84 3a 66 da 8a bd 80 c1 6e 3d 7b 8c 2e bd
       0.0010096474 -0.067799374 0.058290005 -0.04261444
000170 2d 44 3a be 32 84 06 3e c1 3d 77 bb 10 6c e5 3d
       -0.1819007 0.13136366 -0.0037726017 0.11202252
000180 6f 83 21 3e a2 fe 12 3c 6b 33 82 3d 8e 8c 10 be
       0.15772794 0.008971842 0.063574634 -0.14116117
000190 ef c3 00 bd 8d 4d 03 be 7c cf 40 3e 8c 02 0c be
       -0.031436857 -0.12822552 0.18829149 -0.13672847
0001a0 80 52 38 be 9d 3b 41 3d 7b ea c0 3d 9f 49 14 be
       -0.18000221 0.047175992 0.094197236 -0.14481209
0001b0 75 1d 8a 3d 64 88 ad bd 7e e1 10 bd 25 c9 eb 3d
       0.067439 -0.0847328 -0.035371296 0.11512975
0001c0 21 b8 50 3d 3c 9c f0 3d c5 df 16 3e 67 39 0c 3e
       0.05095685 0.11748549 0.14733799 0.13693772
0001d0 e2 8e b3 3c 6c 1e b3 3d 46 0b 2d be 9e a2 04 bd
       0.021918718 0.08746037 -0.16898832 -0.032381646
0001e0 c0 01 e7 bb 3b 35 c4 3d d7 46 83 3d 08 13 bf 3d
       -0.007049769 0.095804654 0.06409996 0.09329802
0001f0 65 7a 4f be ea f8 63 3d 24 69 26 3e a6 36 47 3d
       -0.20261534 0.055657305 0.16251045 0.0486361
000200 0a 54 25 3e 49 c9 09 be b3 7c 63 bc 44 00 2a 3d
       0.1614534 -0.1345569 -0.013884711 0.04150416
000210 91 20 0e bd cc bd 08 3e 72 99 c4 3d df af ef 3c
       -0.034699026 0.13353652 0.0959958 0.029258667
000220 bc c3 51 3a e1 98 a3 bd 72 dd a2 3c 00 fe 42 3e
       0.0008001884 -0.07988144 0.019880984 0.19042206
000230 9a 6c 35 be 35 de c8 bd 30 ed f7 bd 03 8d a9 bd
       -0.1771721 -0.09808008 -0.12105787 -0.08278849
000240 97 11 27 be 02 36 43 3e 8e a7 13 be a7 85 5d bb
       -0.16315304 0.19063571 -0.14419386 -0.0033801587
000250 cd b6 ab 3d eb ee 3d be 33 a1 04 3c 2f a5 d3 bd
       0.08384476 -0.18548171 0.0080950735 -0.10334241
000260 36 d8 06 be e5 d2 9e 3d 6c 76 79 bd de 6e 5c bd
       -0.13168415 0.07755069 -0.06090395 -0.05381667
000270 0d fc cc 3d 77 31 c9 3c 09 0c 90 bc 21 27 44 3e
       0.10009012 0.02455972 -0.017583864 0.19155551
000280 f5 2c ff bd c5 e6 3c 3e 3b ff 03 3d b3 7b 65 3c
       -0.12459747 0.18447407 0.03222583 0.014006543
000290 43 49 6a bd e8 57 13 bd 84 1f ba bd 35 57 22 be
       -0.057198774 -0.035972506 -0.090880424 -0.1585358
0002a0 d8 e9 c9 3d 70 ed 65 3d 9c 0a aa bd 4b 9b a4 bd
       0.09859055 0.05613464 -0.08302805 -0.08037432
0002b0 60 d7 ea bd 69 c2 cf bd b1 c0 af bd f7 bb 09 3e
       -0.11466861 -0.10144503 -0.08581675 0.13450609
0002c0 02 78 0a be b1 1a dc 3d 5b 9f b0 3d 6b cf 0b 3e
       -0.13522342 0.107472785 0.08624145 0.13653342
0002d0 aa b1 a9 3c 61 f1 9f 3d e6 30 d7 bd 45 8e 22 be
       0.0207146 0.07809711 -0.105073735 -0.15874584
0002e0 71 4a 05 be 79 72 af 3d d9 45 cf 3d 92 e2 5b bd
       -0.13016678 0.08566756 0.10120744 -0.05368287
0002f0 1f fd 2a be 1b c5 d1 3d 90 4d 87 bd 46 63 03 3e
       -0.1669812 0.10242673 -0.06606591 0.12830839
000300 aa e0 88 3d 5d 31 18 be 9d c8 c2 3d 14 1d be 3d
       0.06683476 -0.1486258 0.0951092 0.0928289
000310 5a a5 c1 bd a6 ae 16 be 40 61 ca 3c 8e 4b 03 3e
       -0.094553664 -0.1471506 0.024704576 0.1282179
000320 7a 1f 1f be d4 6e aa bd 9e a6 88 3b bc bd f7 bb
       -0.15539351 -0.0832192 0.004170253 -0.00756046
000330 82 4d 12 be 74 a0 15 3e dc 41 39 3e 79 9b 04 3d
       -0.1428738 0.1461199 0.1809153 0.032374833
000340 e5 27 3f 3e 88 ac 1c be 56 32 f6 bd 3e 21 42 be
       0.18667562 -0.1530019 -0.120213196 -0.18957993
000350 fc 46 07 bd 2c d2 83 3d 49 5a 93 3d 71 7f bc bd
       -0.03302668 0.064365715 0.07194955 -0.09203995
000360 4a 2a 8b 3c 8c c2 47 be a4 72 3d 3d 9e b9 90 bc
       0.016987938 -0.19507807 0.046251908 -0.017666634
000370 e9 6b 07 3e ad 33 bc 3d 93 d5 09 3e 05 a5 63 3d
       0.13224758 0.09189544 0.13460378 0.055577297
000380 d5 e1 04 3e 7f 58 42 be ae 62 0c bd 53 33 31 3e
       0.12976773 -0.18979071 -0.034273796 0.17304735
000390 bf 1b 69 3d 19 c7 bd bd 39 c0 b7 3d 49 21 33 be
       0.056911226 -0.092664905 0.089722104 -0.17493166
0003a0 b1 19 6b 3d 35 ed 0c 3e f2 4e f7 bd 48 9a dc 3d
       0.057397548 0.13762362 -0.120756045 0.10771614
0003b0 f6 57 c0 3d c3 94 7e 3d 1a 60 4a bd c8 cb 51 bd
       0.09391777 0.06215359 -0.049408056 -0.05121973
0003c0 63 12 31 bd e1 19 23 be 78 d9 0b 3e af aa e0 3d
       -0.043230426 -0.15927841 0.13657176 0.10970055
0003d0 86 55 19 3e b3 55 d1 bc a0 29 41 3e 14 42 fd 3c
       0.14974031 -0.02555356 0.18863535 0.030915298
0003e0 ed f4 9b 3b 2d f2 00 be e9 84 04 bc 04 24 d3 3d
       0.004759422 -0.12592383 -0.008088329 0.10309604
0003f0 4d 76 c0 3a 70 a2 02 bd fa 0d 28 bd 39 0e 2c be
       0.0014683694 -0.031893194 -0.041028954 -0.168023

bias f4 [639]
000000 cc 61 39 be 33 3b 35 3e b3 98 0b be 86 68 68 3d
       -0.18103713 0.17698364 -0.13632469 0.056740306
000010 70 d4 24 3e 85 32 48 bc 23 d0 3a 3d c4 1e b4 bd
       0.16096663 -0.012219076 0.04560865 -0.087949306
000020 1d 65 4e bc 71 be 38 3e 15 15 0a 3e 64 06 33 be
       -0.0125973495 0.18041398 0.13484605 -0.17482907
000030 bd a7 97 bd b5 17 45 be 58 d0 3c bd 23 8a e9 bd
       -0.074050404 -0.19247325 -0.04609713 -0.114033006
000040 15 29 87 bd 36 01 ef bd fe b7 02 be 44 8d 6d bc
       -0.06599633 -0.11670153 -0.127655 -0.014499012
000050 7c 5c af bd 7d 11 0a 3e 42 88 aa 3d 3d f8 02 3e
       -0.08562562 0.13483234 0.0832677 0.12790008
000060 ca d2 97 bc ed d7 29 3e 65 1d 67 bd 13 52 8e bb
       -0.01853313 0.16586275 -0.056424517 -0.00434328
000070 6a e7 93 3d 84 f2 c7 3d e3 ec 29 3e 1f 56 16 be
       0.07221873 0.09763053 0.16594271 -0.1468129
000080 cc 2d 1d be 3e 14 bf 3d ab cd 75 bd d9 04 e3 3d
       -0.15349501 0.09330033 -0.060010593 0.11084909
000090 f4 67 85 bd 04 b4 11 be 6e 39 17 be 21 ed b1 3d
       -0.06513968 -0.14228827 -0.14768001 0.08687807
0000a0 b8 1d 02 be 6a 9e a5 3d 93 af 2f be 1a 1c 1a 3e
       -0.1270665 0.08086856 -0.1715682 0.15049782
0000b0 a4 da 0f 3e 38 a3 36 bd 81 bd 8d bb 5c ea f3 3d
       0.14048249 -0.04458925 -0.004325569 0.11909935
0000c0 23 5e 03 be d4 02 a3 bc 86 88 d5 3d ff ed 41 be
       -0.12828879 -0.01989881 0.104264304 -0.18938445
0000d0 9c 4f 74 3a e6 27 0d 3d 43 21 8c bd 84 32 dd 3a
       0.0009319724 0.03446188 -0.06842282 0.0016876017
0000e0 fe 4d b5 bb a0 7c 81 3d 44 aa 39 3e 86 0a 94 3c
       -0.005532979 0.063225985 0.18131357 0.018071424
0000f0 90 0f cf 3d 9f 4f d2 3d 16 49 57 bc 04 f6 38 3e
       0.1011039 0.10269093 -0.013139984 0.18062598
000100 2b 61 f0 bc 44 72 52 bd 3a 73 21 be f5 2c 52 3d
       -0.029343208 -0.051378503 -0.15766612 0.051312406
000110 6b 53 3e 3e ee b8 a9 bc f9 8e db bd be b2 3e bd
       0.18586509 -0.020718064 -0.10720629 -0.04655718
000120 ae a1 cb bd 99 92 0c be cf 9e b3 3d 5c e1 fa 3c
       -0.09942947 -0.13727798 0.08770525 0.030625038
000130 0f 6c c4 bd 5a ff 11 3e e2 68 25 3e ba 1d 87 bd
       -0.09590923 0.14257565 0.16153291 -0.06597467
000140 30 23 39 3d 14 09 a9 bd be 61 3c be ba 70 bf 3d
       0.045199573 -0.08253685 -0.1839666 0.09347673
000150 5f 47 24 3d 87 53 ae 3d 65 3b 9d 3c a9 af fa bc
       0.040107127 0.08512025 0.01919336 -0.03060134
000160 86 f1 3c be f1 be c9 bd 9b 06 22 be 0d e1 d0 bc
       -0.18451509 -0.09850872 -0.15822832 -0.025497938
000170 61 54 12 be 77 ae f4 bb f7 e5 c6 bd 54 10 04 be
       -0.1429 -0.007467087 -0.09711831 -0.12896854
000180 b1 bf 39 3e f4 be 97 bd e4 c0 82 3d a4 d9 07 be
       0.1813953 -0.07409468 0.06384447 -0.13266617
000190 6b 0a ee bd a9 a1 73 3d 00 35 e9 bd 74 f6 c2 3d
       -0.11623081 0.059480343 -0.11387062 0.095196635
0001a0 99 13 0b be 8e db d0 bd 00 ff 2c 3d 1c 94 37 be
       -0.13581695 -0.10198127 0.042235374 -0.17927593
0001b0 b6 b0 18 3e 11 80 36 3e 51 50 a7 bd 80 4a 82 3d
       0.1491116 0.17822291 -0.08169616 0.06361866
0001c0 86 ca b0 bd 28 83 3d be 8b 6c ba 39 65 05 36 3e
       -0.08632378 -0.18507063 0.00035557555 0.17775495
0001d0 af 5a 02 be cc 9f 24 bd cd 44 35 be 1d 8b c4 3c
       -0.12729906 -0.040191457 -0.17702027 0.023992116
0001e0 31 d9 07 3e 05 8f 8d bd 19 05 61 3d 9d 1e 43 3c
       0.13266446 -0.069120444 0.054936502 0.011909154
0001f0 ae 42 22 be 31 6e c5 bd 36 44 2b 3c 56 dd 95 bd
       -0.15845749 -0.09640158 0.0104532745 -0.07317607
000200 8f 3a 90 3c 4b 94 23 3e 4d 96 04 be 9c 43 a4 3d
       0.017606048 0.15974538 -0.1294796 0.08020708
000210 d9 0a 86 3d ec 0c 3d be b4 ee 05 3e f5 ad 39 be
       0.06545038 -0.1846196 0.1307934 -0.18132766
000220 66 12 a7 3d 09 ed 01 be 8d 58 da bb 1c 4a 00 be
       0.08157806 -0.12688078 -0.006663388 -0.1252827
000230 e9 40 41 be ee b6 37 bd e5 a6 fe bd 3e 73 39 be
       -0.18872418 -0.04485219 -0.12434176 -0.18110368
000240 d2 92 a3 3d 29 0c 86 3c 99 f8 88 bb 9e 41 27 3e
       0.07986988 0.01636322 -0.004180026 0.16333625
000250 20 ed 93 3c d4 bb 02 3e 79 83 0d 3e e6 42 a2 3d
       0.018057406 0.12766963 0.13819684 0.07922916
000260 d3 02 c6 3d 42 91 37 3e 0b c9 03 be 57 a8 2e 3e
       0.096685074 0.17926505 -0.1286966 0.17056404
000270 6b 77 47 3c 2a b9 2b 3e 61 8c 35 3e 7f a2 80 3d
       0.012174468 0.16769853 0.17729332 0.06280994
000280 86 15 06 be ef 71 88 3c b6 79 38 3d 7b 2c af bc
       -0.13094148 0.01665589 0.045037948 -0.021383515
000290 a2 28 0a be 98 cb 37 39 80 b3 55 3c c2 70 b9 3d
       -0.13492063 0.00017528085 0.013043284 0.0905471
0002a0 e8 fb bf 3a 2e 0f a7 bd c6 0a 19 3e a4 b2 06 3e
       0.0014647217 -0.08157192 0.14945516 0.13154083
0002b0 e8 2b 22 3e db 39 39 3e 18 65 bd 3d 14 13 3a bd
       0.15837061 0.18088476 0.09247798 -0.04542835
0002c0 91 56 9d 3d 67 da c4 bd d2 ca 32 3e e1 9b b7 bd
       0.07682527 -0.096119694 0.17460182 -0.089652784
0002d0 64 19 26 3e 8b 30 56 3d 51 9b 1f 3d 0e ee 15 3e
       0.16220623 0.052292388 0.03896648 0.14641592
0002e0 a3 0d 32 bd 5f cb 39 3e da 7b 78 bb 7e ce 8c 3d
       -0.043470036 0.18143986 -0.0037915618 0.06875323
0002f0 fa 7e fb bc a4 12 34 3e e2 06 81 bd 4a d4 60 3c
       -0.030700196 0.17585236 -0.06300141 0.013722489
000300 01 1c 28 bd 33 11 da bd 40 a1 4c 3d e9 94 f3 3d
       -0.04104233 -0.10647812 0.049958467 0.11893637
000310 25 12 07 be 5d 1b 30 be 00 7d d5 3d 83 74 a5 3d
       -0.13190515 -0.17197938 0.104242325 0.080788635
000320 50 4b e2 bd 6b 40 a9 3d 40 56 22 bc 07 73 02 3e
       -0.11049521 0.0826424 -0.009908259 0.12739192
000330 f9 e9 32 3d 02 f7 40 be e9 02 d8 3d 14 da 3b be
       0.043680165 -0.18844226 0.1054743 -0.18344909
000340 88 37 35 be 95 97 45 bc 74 3b 14 3e 7a c0 de 3d
       -0.17696965 -0.012060066 0.14475805 0.10876556
000350 9e d9 2c 3d 5c 66 30 3d 76 d5 34 bd 0d 28 42 3e
       0.042199723 0.043066368 -0.044148885 0.1896059
000360 8c 6e 19 be 85 cb 2d 3e cf 8b 67 bd de 8c 40 3d
       -0.14983577 0.16972168 -0.056529816 0.04700934
000370 e8 a6 50 3a ca ea 34 3e ad 7b 28 3e cf 12 2b bd
       0.0007959441 0.1766769 0.16453429 -0.041765984
000380 f0 e5 49 3d 22 b9 9b bd ac 9d 6b 3d ca 17 43 3e
       0.04929155 -0.07603671 0.057523414 0.19052044
000390 3c 16 49 3d b7 69 4a bd f3 35 12 3e 8b 87 ad bd
       0.04909347 -0.049417224 0.14278392 -0.084731184
0003a0 b4 74 37 bd 1a b4 04 be 22 17 4b 3d c4 b7 9d bd
       -0.04478903 -0.12959328 0.049582608 -0.07701066
0003b0 69 6f 0b 3e 5b d0 01 bd 8e ad e1 bd c3 13 40 3c
       0.13616718 -0.031692844 -0.11019431 0.011723462
0003c0 9f 6b 1c 3e 1e 0b 13 bd 69 31 1f 3e c4 58 04 3d
       0.15275429 -0.035899274 0.15546192 0.032311216
0003d0 a5 b5 eb bd c8 c2 4b 3d 80 f5 cb 3d 0e 79 79 3d
       -0.11509255 0.049746305 0.09958935 0.060906462
0003e0 9e b6 f9 3d e1 89 19 be 1f 46 36 bc a9 34 81 3d
       0.121930346 -0.14994003 -0.011125117 0.06308872
0003f0 52 e0 da 3c 54 58 db 3d dd 12 45 bd 37 89 cf bc
       0.026718292 0.10710207 -0.048113693 -0.025333984

weight f4 [639, 3, 3, 3]
000000 56 f6 0f bd 21 50 c4 bd 8f de c5 bd 76 49 95 3d
       -0.035147034 -0.09585596 -0.0966159 0.07289402
000010 30 84 c6 3b b3 0c 38 bc ac 03 91 bc b9 5b 28 3e
       0.0060582384 -0.0112334965 -0.017701946 0.1644124
000020 66 ea fa 3d b2 9f 2a 3e 8c 21 16 be 75 32 3d 3e
       0.12251739 0.16662481 -0.14661235 0.18476279
000030 54 ac 10 3e 89 b1 d9 bb 43 30 59 bc 2e d0 4f bd
       0.14128238 -0.0066434783 -0.013256135 -0.050735645
000040 3e 24 19 3d e2 60 07 be 91 da 0a 3d a6 fd fa bd
       0.03738808 -0.13220552 0.033899847 -0.12255411
000050 cc 17 a0 bd 97 77 7b 3d ef 92 a6 3c 95 a2 24 3e
       -0.07817039 0.061393347 0.020333735 0.16077645
000060 3c ab 00 be 72 b3 1b 3e 2a 9d 13 3e 07 0e 0b be
       -0.1256532 0.15205172 0.14415422 -0.1357957
000070 62 ac 36 3e 8c 42 8b bd d7 5e 57 3c 34 16 03 be
       0.17839196 -0.06799802 0.01314517 -0.12801439
000080 54 90 a7 3d 67 a4 8e bd e4 e1 b9 bd b8 df 79 3d
       0.08181825 -0.06964951 -0.09076288 0.06100437
000090 05 dd d5 bd ef a2 c3 bd 48 86 01 be 15 70 2d 3e
       -0.10442547 -0.095525615 -0.1264888 0.16937287
0000a0 8f 8d 4a be d6 77 af bd de cd 6e 3d 95 0b 86 3d
       -0.19780563 -0.08567779 0.0583018 0.06545178
0000b0 73 98 cb bd 66 7f f6 bd 44 01 17 be e9 82 00 be
       -0.09941187 -0.12036018 -0.14746577 -0.12549938
0000c0 95 80 1f be 06 46 00 be bb 13 40 3d 86 e1 0a 3e
       -0.15576394 -0.12526712 0.046893816 0.13562593
0000d0 f6 05 66 3d db 30 01 be b2 51 1d 3e 78 50 18 be
       0.05615803 -0.12616293 0.15363196 -0.14874446
0000e0 ed 06 05 be 8b 7e 40 3d 72 1c e6 bd 52 09 05 3e
       -0.12990923 0.04699568 -0.11235894 0.12991837
0000f0 a4 2d 45 be 7f 67 b6 3d c0 ac e4 3d d3 01 0e bc
       -0.19255692 0.08906459 0.11165762 -0.008667427
000100 b4 b3 1d bd 40 4d 1c be a7 92 f9 3d 7b 81 06 3e
       -0.038501456 -0.15263844 0.12186175 0.1313533
000110 65 0d 25 3e 87 fc 17 bd da 4c 3e be 62 13 3a be
       0.16118391 -0.037106063 -0.18584004 -0.18171456
000120 1a d5 54 3d 62 37 a9 bd 77 71 b6 bd 92 bb 40 3d
       0.051961042 -0.082625166 -0.089083605 0.04705388
000130 fb f9 16 be c0 1c 44 bd 07 c4 24 3d 5e 04 c7 bd
       -0.14743797 -0.04787898 0.04022601 -0.0971763
000140 98 64 96 bd de dc d9 3d 0d 7e db bc c7 7d 1f 3e
       -0.073434055 0.1063783 -0.026793504 0.15575324
000150 59 0f f9 bd 23 27 b7 3c 63 db 22 3e 0b e3 7b bc
       -0.121611305 0.022357529 0.15904002 -0.0153739555
000160 ea 10 ba bd 09 af 38 3d c8 00 1c be 06 eb 56 bd
       -0.09085257 0.0450888 -0.15234673 -0.05247023
000170 f6 f2 7e bc 94 c8 f4 bd dd c4 52 bd 04 b1 69 3d
       -0.015560856 -0.1195232 -0.051457275 0.05705358
000180 d1 3b 41 be 89 df 99 bd 39 5a 03 3d c9 e3 39 3e
       -0.18870474 -0.07513339 0.032068465 0.181533
000190 cc ef f4 3d d5 26 0b 3e ef bc 30 3e df b2 5d bd
       0.119598 0.13589032 0.17259572 -0.054125663
0001a0 63 7e 39 be 45 0a e8 3c 38 e4 88 bc 61 f9 c7 bd
       -0.18114619 0.02832521 -0.016710386 -0.09764362
0001b0 43 22 ea 3d 7b 61 a9 3d 97 ba e4 3c 47 c6 48 be
       0.11432316 0.08270546 0.027921004 -0.19606887
0001c0 95 1c c8 bc 4a ee 07 be 60 5a c2 bc 52 21 45 be
       -0.024427691 -0.13274494 -0.023724735 -0.19250992
0001d0 10 aa 2a be 87 9d aa bd a0 cf 3b be 11 25 16 be
       -0.16666436 -0.08330827 -0.18340921 -0.14662577
0001e0 e2 aa 1c be 16 8d d9 bd 57 40 12 3e 96 dd 17 be
       -0.15299562 -0.10622613 0.14282356 -0.14830622
0001f0 f6 ee 53 3c 98 fe 77 bd 7c c4 34 be a3 b6 a1 3d
       0.012935391 -0.060545534 -0.17653078 0.07896163
000200 a3 a5 3b be 7f 7d 3a bd a5 de 10 3e bb 18 83 3d
       -0.18324904 -0.04552984 0.14147432 0.06401201
000210 e9 81 14 be 0b fe a1 3d 49 ee 19 3e 2c e2 c7 bc
       -0.14502682 0.07909783 0.15032305 -0.02439984
000220 c4 cd 36 3e 3d 9b 72 3c 09 6d d0 3d 3b 62 30 3e
       0.17851931 0.0148075195 0.10177047 0.17224972
000230 fa f4 2f be 63 dc fa bc d3 aa fc bd 63 ca b9 bd
       -0.17183295 -0.030622667 -0.1233727 -0.09071805
000240 1f 6e 7d 3d 15 cd 9c 3d d0 8a 75 bd 0e 42 3e be
       0.061872598 0.07656304 -0.059946835 -0.18579885
000250 00 6c 64 bd 62 9d f9 3d 98 ef c7 bc 94 d1 13 bd
       -0.05576706 0.121882215 -0.02440624 -0.03608854
000260 c4 ff 31 be a3 a1 81 bd 4e 92 ba 3d 0c a4 24 3e
       -0.17382723 -0.06329658 0.09109937 0.16078204
000270 4d 3b e9 bd be a2 18 be 1b 6d 33 bd e5 44 22 3e
       -0.11388264 -0.14905831 -0.043805223 0.15846594
000280 c4 66 d6 bd a3 22 d4 3d 08 5f 3e be 61 68 ab bd
       -0.1046882 0.10358169 -0.18590939 -0.08369518
000290 16 40 de bd df d7 02 3e ad 82 b2 bd a8 79 b9 bc
       -0.10852067 0.12777661 -0.08716331 -0.022641018
0002a0 57 b1 3b 3c b7 e5 24 be 45 00 ea 3d 3a 59 a4 bc
       0.011455855 -0.16103254 0.11425833 -0.020062078
0002b0 6d 77 a4 3d 47 d2 59 3d 0b 9e 39 3e 1c 1f 04 bd
       0.08030591 0.05317905 0.18126695 -0.03225623
0002c0 b4 b4 33 be 00 85 d4 bd 21 d8 4b 3d 71 b7 9f 3d
       -0.17549402 -0.1037693 0.049766663 0.077986605
0002d0 0b 1c 19 bd 43 ce ad 3c 7c 63 12 be 47 3b 7a bd
       -0.03738026 0.021216517 -0.14295763 -0.061091688
0002e0 2b f6 a0 3d f7 89 1b be e7 df 23 bd 8c 14 12 be
       0.07859453 -0.15189348 -0.04000845 -0.1426565
0002f0 b1 cf 84 bd 0b 7d 2d be a1 95 40 be 95 09 31 3d
       -0.064849265 -0.16942231 -0.18807079 0.04322203
000300 cb 78 1b 3d 28 13 50 3a df d4 39 be 07 eb c5 3d
       0.037956994 0.0007937425 -0.1814761 0.096639685
000310 ca e5 f6 3d 60 00 fd 3d f5 7a 27 be f7 c9 dc bd
       0.120555475 0.12353587 -0.16355498 -0.10780709
000320 8d 7b a3 bd d5 a8 33 be 0e af ca bd 28 b7 4d be
       -0.0798255 -0.17544873 -0.0989667 -0.200894
000330 b4 60 32 bd 4a b4 2b be 13 cc 14 3e e8 77 03 be
       -0.043549255 -0.16767994 0.14530973 -0.1283871
000340 8a 3c f0 bd 4d 15 2e be 73 15 46 bd 16 73 ad bd
       -0.11730297 -0.17000313 -0.0483603 -0.084692165
000350 5c 1a 95 bd d4 f3 67 3d 04 30 90 bc 96 8a c8 3d
       -0.07280418 0.056629017 -0.01760102 0.09792058
000360 64 33 3c be b9 8c 72 bd 05 77 25 3e 43 1b 3f be
       -0.18378979 -0.059216235 0.16158684 -0.18662743
000370 2f f0 63 3d 9b 3d 46 3d 8f a7 11 be 7d ad c3 bd
       0.05564898 0.048398595 -0.14224075 -0.09554575
000380 16 d2 2b be e4 68 89 bd b1 41 00 be ef 07 05 3c
       -0.1677936 -0.067094594 -0.1252506 0.008119567
000390 cf 4d f7 bd db c9 30 be a4 e7 f1 3d 4f ee d0 3d
       -0.12075388 -0.17264502 0.1181176 0.10201704
0003a0 34 af 18 3e b1 26 74 3b 17 73 ef bd 83 4f 00 be
       0.14910585 0.0037254507 -0.116918735 -0.12530331
0003b0 33 9b bd bd 02 0d 03 3e 2f 39 35 be d7 ca 00 bd
       -0.092581175 0.12797931 -0.17697595 -0.031443443
0003c0 72 74 09 be c2 01 ae bd 5c 13 e6 bd a0 2c 3e be
       -0.13423327 -0.08496429 -0.11234161 -0.1857171
0003d0 04 a5 dd bd 25 6f 97 3d c8 7c 30 bd 05 3f be bc
       -0.1082249 0.07394246 -0.04308775 -0.02322341
0003e0 97 e5 d8 bd 92 ec d6 3d a2 52 35 3d 5f 70 3d be
       -0.10590666 0.10494341 0.044268258 -0.18499897
0003f0 6f 37 c8 bb 6c a0 db 3b 74 05 1f 3d 9a 9c 10 be
       -0.006110124 0.0067024734 0.03882356 -0.14122239

bias f4 [639]
000000 a2 f5 3e 3d 8c 08 88 bd 74 d6 4b be e8 f5 14 3d
       0.046620972 -0.06642255 -0.19906026 0.036367327
000010 ca 55 90 bd 83 d6 be 3d b2 2a 9d bd 14 89 19 3d
       -0.07047613 0.093182586 -0.07674159 0.037484244
000020 c4 9d 67 bd 26 9e b2 bd 3d 1f de 3d f0 97 aa bd
       -0.05654694 -0.08721571 0.10845802 -0.08329761
000030 72 4f 98 bc 71 e7 15 3e 8d 3c 69 bd fc 13 0c 3e
       -0.01859257 0.14639069 -0.05694251 0.13679498
000040 bf c2 e1 bd d2 31 9f bd fd 1b db bd 73 e8 27 bd
       -0.11023473 -0.07773174 -0.10698698 -0.040993165
000050 c5 20 23 bc e9 b9 27 3e 7c 81 d3 3d 37 95 9f 3d
       -0.009956543 0.16379513 0.103274316 0.07792132
000060 c8 e9 b0 bd e9 95 02 3e 9e 50 31 be 1e 5f 5b bd
       -0.0863834 0.12752499 -0.1731591 -0.053557508
000070 59 8f 16 3e a9 83 37 be e1 a3 3e be 74 2b 0f be
       0.1470312 -0.17921318 -0.18617202 -0.1398142
000080 01 14 33 3e 76 7a a4 3d 7d 43 98 bd a8 b5 38 3e
       0.174881 0.0803117 -0.07434747 0.18038046
000090 99 5e 1d bd 5a f7 2c bd 43 2b d8 bd 4d 53 26 3c
       -0.038420293 -0.04222808 -0.105551265 0.010151696
0000a0 a9 6c c1 3d f7 b7 93 3d b7 88 5b bc e4 1e 83 3d
       0.094445534 0.07212823 -0.013399295 0.06402376
0000b0 00 6d 46 3d b3 d8 26 be 83 5e 62 3d 10 71 1d be
       0.048443794 -0.16293602 0.055265915 -0.15375161
0000c0 c5 41 2a 3e 12 d9 d3 3c 64 ca f7 3d 71 9c 68 bd
       0.16626652 0.025860343 0.1209915 -0.05678982
0000d0 5a e6 29 3e 77 ea 5c bd 1b 5a 0a be 97 30 b6 bd
       0.16591778 -0.05393454 -0.13510935 -0.088959865
0000e0 20 4a f0 3d b5 97 b6 3d 27 db af 3d 98 43 20 3e
       0.11732888 0.089156546 0.08586722 0.15650785
0000f0 80 fa 13 3a 2e 50 e6 bc f4 90 f5 3d 14 71 b9 bd
       0.00056449324 -0.028114405 0.11990538 -0.09054771
000100 9b d3 48 be 38 dd 3f bd f1 5f 0e 3e d1 9a b9 3d
       -0.19611971 -0.04684183 0.13903786 0.09062732
000110 fc 81 a9 bc e7 d2 ae bc ed 57 1d be a4 d4 3c be
       -0.020691864 -0.0213408 -0.15365572 -0.18440491
000120 9e 30 4a be 08 0c 84 bc e8 5c 31 3e a0 2c 30 be
       -0.19745108 -0.016119018 0.17320597 -0.17204523
000130 8b 77 a7 bc 36 5a 19 be b2 ff 53 bd 93 d5 48 be
       -0.020442745 -0.14975819 -0.051757522 -0.19612722
000140 73 5f 8e bd 36 52 21 3d 6c 2a 20 3e 57 cd 8e bd
       -0.06951799 0.039385043 0.15641183 -0.06972759
000150 a7 7d 7c 3d 14 90 1d 3e cb a6 a3 bd b5 2a a2 3d
       0.06164327 0.15386993 -0.079907976 0.07918302
000160 16 21 09 be 62 98 aa bd c7 b1 24 3e d0 66 05 be
       -0.13391528 -0.08329846 0.16083442 -0.13027501
000170 d2 ba 2a be 44 04 3a be 5a b9 07 be 99 df 30 3c
       -0.16672829 -0.1816569 -0.132543 0.010795497
000180 34 95 05 3e c1 b3 0f 3e 4f 1f 99 3d 99 90 99 bd
       0.13045198 0.14033414 0.07476675 -0.07498283
000190 67 06 45 3d 68 47 a4 3d 12 ee c7 bd c2 f8 2b 3b
       0.04810181 0.08021432 -0.09762205 0.00262408
0001a0 9c c7 1c be c0 7f d0 3c 2b ba 07 bd 42 11 25 be
       -0.1531052 0.025451541 -0.033136528 -0.16119865
0001b0 97 e6 44 be cc 7a cf bc fa a2 17 bd 21 89 03 3d
       -0.19228588 -0.025327109 -0.03702066 0.0321132
0001c0 f0 ca 7a bd ef db b5 bd 26 0e dd bd 97 87 fd 3d
       -0.061228693 -0.0887984 -0.10793714 0.12379377
0001d0 bd 51 28 be 0d fc 10 be e0 8b 0d 3e 1a 70 f4 3b
       -0.1643743 -0.1415865 0.1382289 0.0074596526
0001e0 07 ef 1e bd 34 b0 1b 3e 27 70 e2 3d 14 ae 72 bd
       -0.038802173 0.15203935 0.110565476 -0.059248045
0001f0 41 f3 c1 bd 31 29 92 bd 8a 23 a8 3c e9 99 d9 bd
       -0.09470225 -0.07136763 0.020524759 -0.10625059
000200 67 c6 11 be 1c ba 53 3d ec 72 b8 3c b4 28 1b be
       -0.1423584 0.05169116 0.022515737 -0.15152246
000210 a0 9a 45 bd 92 15 56 bd b7 47 7a bd bc 9b ac bd
       -0.048243165 -0.052266665 -0.06110355 -0.084281415
000220 1c fc 15 3e 5c 81 22 3d 73 c6 00 3d 19 f5 8b bc
       0.14646953 0.039674148 0.031439256 -0.017084645
000230 a5 f4 0d 3e 59 08 e5 3d 7a 4a d4 3d 97 16 2a be
       0.13862856 0.11183233 0.10365768 -0.1661018
000240 49 04 0e 3e 38 73 a6 3d e0 c7 be bd ee e6 cd bc
       0.13868822 0.08127445 -0.09315467 -0.02513453
000250 01 bc 91 3d b2 b3 48 3d 6a 87 3b 3e e5 de c8 bc
       0.07115937 0.048999496 0.18313375 -0.024520347
000260 17 be 05 be 9a ca a6 3d c8 b7 f9 3d 7c 92 de 3d
       -0.13060795 0.08144112 0.121932566 0.108677834
000270 29 7b dd 3d 72 5d 21 3e 0c b1 90 3d 79 69 5e bd
       0.108145066 0.15758303 0.07065019 -0.054299805
000280 d7 59 24 be c8 5e a9 3d db a2 eb 3c 58 20 fe 3a
       -0.16049896 0.08270031 0.028764179 0.0019388301
000290 7f 7f 47 be 7d a4 2a 3e ba f5 18 be 51 57 22 3d
       -0.1948223 0.1666431 -0.14937487 0.039634053
0002a0 39 6d 42 be 0d f1 e8 bd ab f3 42 be 73 2d 2a be
       -0.18986978 -0.11374102 -0.19038264 -0.166189
0002b0 7c 6a bf bd 47 55 a8 bd 58 b3 cf bd b8 4f 87 bc
       -0.09346482 -0.0821939 -0.10141629 -0.016517505
0002c0 5a 7f 23 3e 48 e2 94 bd 94 59 31 3d 75 50 0d 3e
       0.1596655 -0.07269722 0.04329832 0.13800223
0002d0 bb a8 2c be 5e 16 50 be a3 5a 24 3d 84 8f 7e 3d
       -0.1686124 -0.20321032 0.0401255 0.062148586
0002e0 03 1a 5c bd b9 ba a7 3d a0 48 25 be 54 fe be 3d
       -0.053735744 0.081899114 -0.16140985 0.09325853
0002f0 fd ab f1 3d cb 84 2f bd b8 f1 c9 3d 1d 91 e8 bd
       0.11800382 -0.04285125 0.09860557 -0.11355803
000300 26 4d 09 3e 2d d3 1e 3e 62 0d 82 3b a9 01 26 3d
       0.13408336 0.15510245 0.0039688805 0.040528927
000310 79 02 ed bd d1 8f f7 3d c4 80 5f bd c0 ba 0d 3e
       -0.11572737 0.12087978 -0.05456616 0.1384077
000320 5c 9b 50 3b f5 eb 02 be 87 63 cd 3d b6 04 9a 3d
       0.0031830883 -0.12785323 0.10028749 0.0752043
000330 4d d1 e0 3d 90 e3 0a 3e 3f e3 8a 3d 21 97 3c be
       0.10977421 0.1356337 0.06781625 -0.18417026
000340 62 1f 10 be 01 f4 14 be 7c 5c 84 bc 6e 5a bb bd
       -0.14074472 -0.14546205 -0.016157381 -0.091481075
000350 7d d8 e9 3b 65 8b 1a 3d 54 67 d0 bd d6 e4 9b 3b
       0.007136403 0.037730593 -0.10175958 0.004757504
000360 44 e3 13 be 5f fd 4b be 7d 94 84 3d 5f db 03 3d
       -0.14442164 -0.19920872 0.064736344 0.03219163
000370 cb e8 05 bb 79 26 e1 3c df 0c b7 3d b9 f5 30 3e
       -0.0020432945 0.027484166 0.08938002 0.17281236
000380 df 88 71 bd 3e 81 41 3e 8c 96 19 3d f3 1f cc 3d
       -0.05896842 0.18896958 0.03749709 0.09967031
000390 57 9b 9e bc 9f b1 c8 3d a9 f2 de 3c 8b 26 ef 3c
       -0.019361181 0.097995035 0.027215319 0.029193183
0003a0 d8 3b 50 3d 0e 62 8b 3c a0 2e 24 be 62 e8 49 be
       0.05083832 0.01701453 -0.16033411 -0.19717553
0003b0 0c 96 e2 3d 91 b6 ea 3d 58 00 bb 39 7e 84 23 be
       0.110637754 0.11460603 0.00035667676 -0.1596851
0003c0 fa 09 94 bd 86 d7 04 bc 6b 80 6c bd 5f 09 ab 3d
       -0.072284654 -0.008108025 -0.057739656 0.08351397
0003d0 6d 67 19 3e 93 ab d6 3d b5 1e 4a bd 56 a0 10 3d
       0.1498086 0.10481944 -0.04934569 0.03530916
0003e0 5d fb b9 bd 09 7d 07 3e 00 5c df 3a 0c 90 ef bc
       -0.09081147 0.13231291 0.0017040968 -0.029243492
0003f0 76 35 12 be d7 99 d1 3d db f9 85 3d 10 a6 46 bd
       -0.14278206 0.10234421 0.06541797 -0.048498213

weight f4 [639, 3, 3, 3]
000000 b4 b0 8c 3b 63 26 f2 3d b9 46 35 be b7 cd 34 3e
       0.0042935256 0.11823728 -0.1770276 0.17656599
000010 e5 87 2e 3e 5f c5 1e 3d 82 89 80 bd ca d8 0b be
       0.17044027 0.038762446 -0.062762275 -0.13656917
000020 9f 77 31 3e 82 e9 a6 3c 2a ef b8 bb db e1 34 bd
       0.17330788 0.020375017 -0.005643745 -0.044160705
000030 be aa 09 bd c4 16 17 bd 0d 8f bf bd 09 02 a9 3d
       -0.033610098 -0.036886945 -0.09353457 0.08252341
000040 8d a3 ad 3d d4 bc 18 be bf 8a a7 3d 74 ac 2f bd
       0.084784605 -0.14915782 0.081807606 -0.042889073
000050 ba e8 dd 3d d8 81 5b 3d 3f 70 7a bd 6d 6e 07 3e
       0.10835405 0.053590626 -0.061142202 0.13225718
000060 46 16 01 be 0a 66 aa bc ca ea 68 3b 21 e6 c2 bd
       -0.12606153 -0.02080061 0.0035540336 -0.0951655
000070 ee 3f 0f be 82 7c e5 bc 84 b5 44 bd 8a 5e 42 be
       -0.13989231 -0.028013472 -0.04802467 -0.18981376
000080 b6 c3 0c 3e e9 bf 07 be b6 55 86 bd d6 4c 12 3e
       0.13746533 -0.13256802 -0.06559317 0.14287123
000090 57 f9 3e be 53 e3 01 be 2a 8a 10 3e 82 e7 33 3d
       -0.18649803 -0.12684374 0.14115205 0.043921955
0000a0 6c cd f3 3d 00 2c 34 3e 1d 93 b6 bd 7b 3a 10 be
       0.119044155 0.1759491 -0.089147784 -0.14084809
0000b0 c8 fc d6 3d 48 0c 05 be c3 46 07 be a9 f5 cb 3d
       0.10497433 -0.12992966 -0.13210587 0.09958965
0000c0 c5 80 5e 3d 0b eb 1b be 41 45 19 be 73 e2 cb bd
       0.054322023 -0.1522638 -0.14967825 -0.09955301
0000d0 1d 1f 34 3d 15 ab e5 3d c0 bf 2b bd f6 51 05 3e
       0.043974984 0.11214272 -0.041930914 0.13019547
0000e0 b2 8c 09 3e cd 6a dd 3d 8e 54 e9 bd f0 0c f4 bc
       0.13432577 0.10811386 -0.11393081 -0.029791325
0000f0 cb 81 99 3d dc ef 1b be 76 e0 20 be f8 f0 f1 3d
       0.07495459 -0.15228218 -0.15710625 0.11813539
000100 bb ee 15 3e 11 69 44 be c7 9a dc 3d 73 57 9d 3b
       0.1464185 -0.19180705 0.10771709 0.0048016845
000110 d5 cf 98 3d af 12 ce 3c 89 82 22 be 44 1b 54 3d
       0.07461516 0.025155393 -0.15870108 0.051783815
000120 1b f8 68 bd 53 b5 4e bd 8f 31 8d bd c5 5e 47 be
       -0.056877237 -0.050465893 -0.06894218 -0.19469745
000130 03 fb 02 3e 3b fb 2b bd ec 6b 83 3d 0c 7e f8 bd
       0.12791066 -0.04198764 0.06417069 -0.121334165
000140 12 33 1e bd 1f ec 1d 3e b4 70 f6 bd 23 6a d6 bd
       -0.038622923 0.15422104 -0.12033215 -0.10469463
000150 1c 27 1b be db f9 0c 3e 87 67 f7 3d 0c f4 9c bd
       -0.15151638 0.13767187 0.12080293 -0.07663736
000160 de 8d 23 be f9 70 26 3e 32 d6 06 bc f1 1e 1c 3e
       -0.15972087 0.16254033 -0.008229779 0.15246178
000170 82 27 6c bd 38 29 34 be f7 64 13 3e d0 3f 2b 3e
       -0.057654865 -0.17593849 0.14393984 0.16723561
000180 25 19 e1 bd 9a 7b 01 be 2b ce 30 3e ed 1a 4b be
       -0.10991124 -0.12644807 0.17266147 -0.1983449
000190 aa 0a 1f 3e 2c 3c 27 3d 87 1e fd bd 78 3a 0b 3e
       0.15531412 0.04082887 -0.12359338 0.13596523
0001a0 3d 43 78 bd 16 92 10 be a0 f7 3f bd 3d bd d1 3b
       -0.060611 -0.14118227 -0.046867013 0.006400733
0001b0 18 1c 4f 39 fe 74 41 be 03 ab 0b 3d 4c f3 17 3e
       0.00019751524 -0.18892285 0.034098636 0.14838904
0001c0 cd 9d 27 bd ef 6e 49 be f8 07 db bd 1a 14 28 3e
       -0.040921975 -0.19671224 -0.10694879 0.16413918
0001d0 80 c0 af bd 28 f3 21 be ba a9 2e 3e 8f 4e cc bd
       -0.08581638 -0.15815413 0.17056933 -0.09975921
0001e0 8b 1b a3 bc c2 d2 49 be 75 66 b7 3c fa a5 c9 3d
       -0.019910594 -0.19709304 0.022387723 0.09846111
0001f0 f6 f9 9a 3c cb a9 b9 3b 7c f8 d6 bc 93 43 4a be
       0.018918019 0.005665993 -0.026241533 -0.1975234
000200 85 3b 19 be 26 df 67 3d 97 66 ae bc 2d d2 e4 3d
       -0.14964111 0.056609295 -0.021289153 0.111729
000210 1f 3e 8c 3d 7d 41 49 be 06 53 cb 3c a0 98 bc 3d
       0.06847786 -0.19653888 0.024819862 0.092087984
000220 05 db 05 3c a4 4c c5 bd 17 1a 6c bc de f6 10 be
       0.008169894 -0.09633759 -0.014410517 -0.14156672
000230 46 37 d3 bc e1 b3 0e be e0 90 97 ba e9 67 fd 3c
       -0.025783192 -0.13935806 -0.0011563562 0.030933337
000240 3c 3e 8a bc 99 e1 cb 3b 52 88 00 3e 5f 6f b8 bd
       -0.016875379 0.0062219617 0.12552002 -0.09005617
000250 1d bf 86 3d d5 eb 04 be ef 17 fb 3d 00 86 1e 3d
       0.06579421 -0.12980588 0.12260424 0.03870201
000260 b5 fa 1c 3e ba f1 5e 3c ae 21 fd bd db 57 4a 3c
       0.15330012 0.013607437 -0.123599395 0.012350048
000270 d0 7e d3 3b 8c 8d 5e 3d 58 32 cc 3c 45 fd 0a 3d
       0.006454326 0.05433421 0.02492635 0.033932943
000280 af 5d e7 3d 2a c0 c7 bc 9f c7 12 3e 8c 5a 18 be
       0.112971656 -0.024383623 0.14333962 -0.14878291
000290 2a bc 93 3d a4 f1 b4 3d ad fe bf bd 97 a2 2d 3e
       0.07213624 0.08835152 -0.093747474 0.16956554
0002a0 86 db 18 3e 09 cf cd 3d 7c 38 48 be f1 93 e6 3d
       0.14927492 0.100492544 -0.19552797 0.11258686
0002b0 cc 74 fc bd ac ee 94 3d 70 b8 6a bd 11 59 a1 bd
       -0.12326965 0.072720855 -0.0573048 -0.07878316
0002c0 0e fb 37 3e ea 92 94 bd 45 05 1d 3e c0 01 1e 3e
       0.17966864 -0.07254584 0.15334041 0.15430355
0002d0 f1 75 7f 3d c9 e5 99 bc 7d 41 30 be 5d 06 0a be
       0.062368337 -0.018786328 -0.17212482 -0.1347899
0002e0 f3 aa 19 be 4d 88 0f 3e 73 ca cf bd f0 29 1b 3e
       -0.15006618 0.14016838 -0.10146036 0.15152717
0002f0 ec 7c 18 3e 81 c2 0d bd 21 e2 8d 3b 90 d9 21 be
       0.14891404 -0.03460932 0.004329935 -0.1580565
000300 29 55 35 3e 6b 1c 17 3e 70 28 e6 3d 9b 97 1a 3e
       0.17708267 0.14756934 0.112381816 0.15096895
000310 20 4b 2d bd ad d0 eb bd d0 6b b5 3d 59 fc 21 3e
       -0.042307973 -0.11514411 0.08858454 0.15818919
000320 74 e8 cb bd c5 93 8d bd af c0 fd bd 3b 2f 46 be
       -0.09956446 -0.069129504 -0.12390267 -0.19353954
000330 e7 4a 0f be 54 cd 1b be 1e 6b 8b bd d5 8c 55 bd
       -0.13993417 -0.15215045 -0.0680754 -0.05213626
000340 e7 ed 06 3c cd c8 52 3d ad 83 4e 3d 07 89 3f be
       0.008235431 0.05146103 0.050418545 -0.18704616
000350 4a ad 27 be 78 14 db 3c 7b bd e6 3d 99 40 86 3d
       -0.16374698 0.026743159 0.11266609 0.0655529
000360 a7 9b 4f 3d 34 05 a8 3d c6 c5 f3 bd 68 6c fe bd
       0.05068555 0.082041174 -0.11902957 -0.124230206
000370 cd a7 f6 3d 10 bd ae bc 5b b2 4c 3b 4a 43 ed 3d
       0.12043724 -0.021330386 0.0031234238 0.115851
000380 11 0d 15 be a9 83 fa bd 91 7d 42 be 14 f1 05 3e
       -0.14555766 -0.122321434 -0.18993212 0.13080245
000390 f9 43 09 be 94 7b 98 3d 2f 6e d3 3d 18 64 d1 bd
       -0.13404836 0.07445446 0.1032375 -0.102241695
0003a0 2e a6 20 3e d1 0e 0c 3e 77 c4 26 3d 06 83 a5 bc
       0.15688393 0.13677527 0.040714707 -0.020204078
0003b0 1c 7b 0a be c7 63 24 bd 67 2e 2d be 13 29 3e be
       -0.13523525 -0.040134218 -0.16912232 -0.18570356
0003c0 7f 4c ff bc 93 3c 99 bd d0 60 d9 bd db bc b3 bd
       -0.031164406 -0.07482257 -0.10614169 -0.08776256
0003d0 a0 18 f6 bd 49 fd 55 bd 00 ba 68 bd 3e bd 12 bb
       -0.120164156 -0.052243505 -0.05681801 -0.002239063
0003e0 93 4a ef 3d dd 3c 12 3d 6e 7e cd 3c 9c bf 09 3e
       0.11684146 0.035702575 0.0250847 0.13452
0003f0 b3 98 c0 bd 15 56 34 3e e3 2b 13 3e 3f 3a 0b 3d
       -0.09404125 0.17610963 0.1437221 0.033991095

bias f4 [639]
000000 2e 35 10 3d 94 72 e2 bd 64 59 c3 bc 19 00 db bd
       0.035206966 -0.1105701 -0.023846336 -0.10693378
000010 2f 71 91 bd 53 36 42 3d 5d c4 41 3d 21 5b 4f be
       -0.07101666 0.04741509 0.047306407 -0.20249607
000020 46 57 cc bb 84 ff 6e 3d ca f4 74 bd 86 dd 88 bd
       -0.0062359897 0.058349147 -0.05980376 -0.06682877
000030 6e 0f dc 3d b7 b9 d0 3d 88 3a 07 bd 55 f4 bb bd
       0.107451305 0.10191672 -0.033014804 -0.09177462
000040 d2 c5 42 be e3 25 cc 3a 94 30 fa bd ed 4a 41 3d
       -0.19020775 0.0015575256 -0.12216297 0.047190595
000050 1b cb 0d be 4d bd 21 3e 0f 7d 8e 3c 82 27 f4 3b
       -0.1384701 0.15794869 0.017393617 0.0074509988
000060 c8 8d e8 3a c3 96 f2 bd d3 b9 39 be cf 25 be bc
       0.0017742449 -0.11845162 -0.18137293 -0.023211388
000070 73 5f f3 3d d5 20 a3 bd cf b5 31 3d ea 9a 1d 3e
       0.1188344 -0.079652466 0.043386277 0.15391126
000080 52 77 05 3e 16 df 12 be 27 1d 4a bd 6f 5a eb bc
       0.13033798 -0.14342913 -0.049344208 -0.028729646
000090 68 c2 f5 3c 0c 52 47 be 2f db 7a bb b7 db 23 be
       0.029999927 -0.19464892 -0.0038277616 -0.16001783
0000a0 0e 9d cc 3d 09 ff bb bd b5 4b 3d be fd f5 08 be
       0.09990893 -0.091795035 -0.18485911 -0.13375087
0000b0 04 d5 83 bc 85 1a f5 bd b0 be c7 3d 62 28 2d 3c
       -0.016092785 -0.11967949 0.09753168 0.01056871
0000c0 0c 17 a8 bd 54 8d 24 3e f9 5b 06 bd 78 6b 16 be
       -0.08207521 0.16069537 -0.032802556 -0.14689434
0000d0 7b 68 49 3d cc 25 2b be 3b 67 2c 3e 80 89 f8 3d
       0.049171906 -0.16713637 0.16836254 0.12135601
0000e0 eb 77 11 bc 4d 78 39 be fc 62 3f bd 27 3a 1d 3e
       -0.008878688 -0.18112297 -0.04672526 0.15354215
0000f0 01 83 4c bd 56 a9 2e be ed 67 4e be 68 d7 0a be
       -0.049929623 -0.17056784 -0.20156832 -0.13558733
000100 87 dd c4 bd b7 56 22 3e 7d 3c 39 3e 8d e6 25 be
       -0.096125655 0.15853392 0.1808948 -0.1620123
000110 33 09 77 3d 9b 23 20 3e 5d 6c c8 bc c3 a5 11 3d
       0.060311507 0.15638582 -0.024465734 0.035558473
000120 ca d6 8a 3d 85 bb e5 bd d9 91 26 be 15 6d b6 bd
       0.06779249 -0.11217407 -0.16266574 -0.089075245
000130 32 4c 8b 3d a6 00 47 3d 96 10 60 bd d2 45 12 3c
       0.068016425 0.048584603 -0.054703318 0.008927779
000140 b9 67 92 3c dd f8 7c bd 43 98 e3 bd 98 da e1 bd
       0.017871724 -0.061760772 -0.11113026 -0.110280216
000150 51 41 40 be e2 eb fa 3d 45 6f 8f bd 6f 9f 6d bc
       -0.18774916 0.12252022 -0.07003645 -0.014503344
000160 3e 41 dd bd b3 38 a5 bb a5 73 30 3e f8 57 30 3d
       -0.108034596 -0.0050421595 0.17231615 0.043052644
000170 6e 35 32 bd dc c7 30 be d9 ab 4a be b8 f2 bb bd
       -0.043507986 -0.1726374 -0.19792117 -0.09177154
000180 bd 4a ff 3c b1 a2 aa 3d 5e 6c f7 bc 38 c2 5d bd
       0.031163568 0.08331812 -0.03020304 -0.0541403
000190 b0 1b ef 3c 43 cd 24 3e ff a0 18 3d d3 b7 d3 bd
       0.029188007 0.16093926 0.037262913 -0.10337796
0001a0 bb 26 84 3d 4b ea 0c 3d c1 30 48 be e8 e2 00 3e
       0.064527 0.034403127 -0.19549848 0.12586558
0001b0 3c 3d 43 bd 5d 45 14 be b9 b6 51 bd 1c ea 24 be
       -0.04766582 -0.14479585 -0.05119965 -0.1610493
0001c0 f3 ed 0d 3e 11 3f 07 be 99 1e 68 bd 75 15 9b 3d
       0.13860302 -0.13207652 -0.056669805 0.07572452
0001d0 03 00 1f be 7d 4f 9d 3d f8 2d 1a be 48 52 a6 bd
       -0.15527348 0.07681177 -0.15056598 -0.08121163
0001e0 ee e3 47 3c 2a 94 ea 3d 89 62 2d 3e 35 88 b4 bc
       0.012200339 0.11454041 0.1693212 -0.022037605
0001f0 b1 23 30 3e 53 3d 2a bc 7a 57 90 3d 6e c0 2c 3e
       0.17201115 -0.010390597 0.07047935 0.16870281
000200 ff 2a 0a be 99 ac f4 3a 04 ca 14 3e 4f ce 0e 3d
       -0.13492964 0.0018667161 0.14530188 0.03486472
000210 a4 be 24 bd 7a 2a 05 bd ff 69 32 be 3a 43 50 bd
       -0.04022087 -0.032511212 -0.17423247 -0.050845362
000220 c8 d2 f8 bd 42 15 33 3e 22 c4 4d 3d 8e fb cf 3d
       -0.12149578 0.17488578 0.050235875 0.10155402
000230 ff 11 20 bc 85 55 15 bd 78 85 21 3e f0 72 17 3d
       -0.009769916 -0.03645851 0.1577357 0.036974847
000240 29 37 9e bd ab 1a c2 3d e7 f6 40 bd 32 bd b3 3d
       -0.07725365 0.09477743 -0.047110464 0.087763205
000250 96 48 2f 3c a0 b4 2a be 98 e4 69 3c e0 f9 d5 3d
       0.010698458 -0.16670465 0.014275692 0.104480505
000260 b4 21 13 3b af ed bb 3b 54 a3 47 be 0a 33 24 3d
       0.0022450509 0.005735121 -0.19495898 0.040087737
000270 60 10 01 3e ed 1a 0d be 1e 70 ff bd f7 e8 a0 bd
       0.12603903 -0.13779803 -0.124725565 -0.078569345
000280 fb 44 1c be de b0 f3 3d ed 05 be 3d fb a5 1e 3e
       -0.15260689 0.11898969 0.09278474 0.15493004
000290 cf 81 0b be f7 e3 0e be 55 cf a9 3d ce 88 44 be
       -0.13623737 -0.13954149 0.082914986 -0.19192812
0002a0 8d 28 02 3e 1e 72 b7 3d b1 67 0f 3b 00 ea 69 bd
       0.12710781 0.08957313 0.0021881873 -0.057107925
0002b0 1e 7e a5 3d be 8c 32 3e c3 f6 3b be ae 08 1f 3e
       0.080806956 0.17436501 -0.18355851 0.15530655
0002c0 1b 65 dc 3d e7 5c 4a be 15 9e 2d 3e b2 91 84 bd
       0.10761472 -0.19762002 0.16954835 -0.06473102
0002d0 9e 05 a7 3d e0 aa 42 3d 56 0a b4 3c e1 df d2 bd
       0.08155368 0.04752624 0.021977585 -0.10296608
0002e0 d2 9f e7 bd 00 9d 23 be 7f 66 07 bc 32 bc 10 be
       -0.1130978 -0.1597786 -0.008264183 -0.14134291
0002f0 2b e8 4c 3d 5c eb 1c 3e 06 8b 12 be 65 35 27 be
       0.0500261 0.15324157 -0.14310846 -0.16328962
000300 a5 d3 16 3e ed a5 3a bc 87 4c 0c 3e c3 cd c6 bc
       0.14729173 -0.011392099 0.13701068 -0.024268037
000310 05 49 23 3e 7e 4e 4b 3d 66 ed 86 3d 36 16 47 be
       0.15945823 0.049635403 0.06588249 -0.19442067
000320 bd d4 5f 3d 7d fe f0 3d fc 1e 28 be 37 92 1c 3e
       0.054646242 0.1176729 -0.1641807 0.15290152
000330 7e 28 2e be ce 3b 2c 3e df df e9 3d 66 25 b9 bd
       -0.17007634 0.16819689 0.11419653 -0.09040336
000340 96 a3 76 3b 24 9a 93 bc ff 18 33 3e f0 0c 85 3b
       0.0037634126 -0.018017836 0.17490004 0.00406038
000350 0a 96 b5 bd c0 60 41 be 2b e9 7f bd cb 28 1a be
       -0.08866508 -0.18884563 -0.062478226 -0.15054624
000360 47 84 f4 bc f7 42 0a be 71 aa 61 3d 15 51 2b be
       -0.029848231 -0.13502108 0.055094186 -0.16730149
000370 e5 b8 38 3e d4 0d 8f bd f2 71 21 3e dd 63 d5 bc
       0.18039282 -0.069850594 0.15766123 -0.026048595
000380 d3 07 52 3d a6 35 35 3e e2 05 25 be 20 6a ba 3d
       0.051276993 0.17696247 -0.16115525 0.09102273
000390 37 cd c3 bd 35 50 ec bd 4b 77 15 3e 8a a1 18 3e
       -0.09560626 -0.11538736 0.14596288 0.14905372
0003a0 06 77 1a 3e d9 5b f4 3d 7e e3 5f 3d 1d 0c 20 be
       0.15084466 0.11931581 0.054660313 -0.15629621
0003b0 18 71 24 bd d0 bc 36 3d 7f 5f 5c 3d c9 4e ae 3d
       -0.040146917 0.04461366 0.05380201 0.08511121
0003c0 5c 0f f0 bc b9 d6 1e 3e 8b 56 ac 3d 14 05 3f be
       -0.029304199 0.15511598 0.08414944 -0.18654281
0003d0 90 25 50 bd 49 21 26 be ad 43 31 3e c6 3b 37 be
       -0.050817072 -0.16223635 0.17310973 -0.17893896
0003e0 ae 98 1e 3e d9 c7 0f 3e c9 49 51 bd 61 ee 09 3e
       0.1548793 0.1404108 -0.051095758 0.1346984
0003f0 68 fd 93 bd cf c0 c9 bd ec b7 d0 3d a4 4b cd bc
       -0.07226068 -0.098512284 0.1019133 -0.025060482
